discrete/src/envs/pan_mpe/pretrained_models/simple_adversary_maddpg_episode_10000.pt (torch_old, 627493 bytes, 204 tensors)

in_fn.weight f4 [8]
00000000: c9fd 1e3f 4c8b 2c3f d1bf 1c3f ed00 363f
00000010: 1e51 1a3f e8e0 183f 39a8 093f bafe 033f
0.62105995 0.6740005 0.6123019 0.7109516 0.60280025 0.5971818 0.5377231 0.51560557

in_fn.bias f4 [8]
00000000: b331 313c 5531 703e c4d9 413d f998 4c3e
00000010: bcf3 8e3d 13f3 353e 7fb2 bc3c 3c56 003e
0.010815072 0.23456319 0.047326818 0.1998023 0.069800824 0.17768507 0.023034332 0.12532896

in_fn.running_mean f4 [8]
00000000: e065 ccbc 9627 a1be d1e0 4dbc ecf8 a6be
00000010: 771e 123d 9e50 c1be ca0d 46bd 38fc 5dbe
-0.024950922 -0.31475514 -0.012565807 -0.32611787 0.035673585 -0.3775682 -0.048352994 -0.21678245

in_fn.running_var f4 [8]
00000000: 8ca8 bd3e 01fd d73e 4acf c53e d9d8 cd3e
00000010: 17ae ca3e be7f d63e 1a9b c83e c787 a93e
0.37042654 0.42185214 0.38634712 0.40204504 0.39585945 0.41894335 0.39180833 0.33111402

fc1.weight f4 [64, 8]
00000000: 364d 333f 2d97 963f 87f8 e2bc 4a63 edbe
00000010: a477 85be 899c 5fbf cc83 e7bd e1fe 823e
00000020: b6bb 0fbf be03 4ebe 6776 86be 7b88 cabe
00000030: 0bbe 90be 9c8d 15bf ec07 f7be 46cb 933e
00000040: 8381 e0bd e5dc df3d ab28 693b eb5c 99bc
00000050: df49 d43d 32af 733f 96ab 9cbd a6a3 0ebe
00000060: 88f5 aa3d fc23 79be bbb0 e53e 434a 6abf
00000070: 09f5 c4be 6bec ae3f 9d5c 473d 37ce ac3e
00000080: 6c3c 81be 7b74 9cbe ea7a c6bd 87ff a3bd
00000090: 5640 50bf 1831 08be 3906 ddbe b325 523f
000000a0: 3eec 28bf 6d70 0cbf 7b3a 06bf 7342 4bbf
000000b0: 9ede ac3d c3db 213e 8d7f cd3f a1ff 823f
000000c0: 55b8 0fbe c8be 13be 845d 7a3e 5079 60be
000000d0: d7b8 bf3d 4839 32be bfaf e63e 6e5d 0abf
000000e0: e5d9 c13e 0245 9dbf 7d2c 80be 71dc b3bd
000000f0: 4b8f 0a3f 594b 0e3f 11c7 4fbf 1a73 ba3e
00000100: 512f 063f 2246 273f 7f7d 2a3f b0f8 db3e
00000110: 1e8a 89bd 6abb 76bd efa9 a9bf 4e89 98bf
00000120: 262e 92bf b1e7 673f 7336 5d3f bfb3 0bbf
00000130: 9c01 bc3d a30c cfbe 4209 9dbe d4c1 ef3d
00000140: 3468 3d3d 03ee ac3d e7b8 d53f 8d90 34bf
00000150: ec1b 83bd c95a 0bbe f77d 97be 7dbd 44be
00000160: 0793 36be 435b 63be 2f5b 6e3e 3939 4abe
00000170: fe28 4f3f 205b 93be e19b 873f aa6e 6e3e
00000180: 7e0e 833f dc22 99be 40f8 073f bcff e9be
00000190: 5ad5 adbf fc3e 383f 04f9 2dbe 2f0f e6bd
000001a0: c8c2 4dbf 53ea 213e dcf2 86bf 407b adbe
000001b0: 9a34 b43e 6f76 e1bd cc82 853e 5d48 b33d
000001c0: 20b1 89bf 01eb 123d 38f9 973e 159a 053f
000001d0: 3350 923f 7225 1dbd 621e 7a3e d064 8e3d
000001e0: f93d 3b3d d8f4 54bf a6de e13d 7df7 1fbf
000001f0: d689 263d 12cf 963e df68 ccbe d04b b33f
00000200: 9874 b93d d643 33bf 6944 2c3f fe2c d9be
00000210: b2ed 4abf 1743 c43f 587b a3bd a2ce 5cbd
00000220: 3de2 603e a651 d43e 0c1f 4c3e 554a 753e
00000230: ec19 b1bd 5591 4e3f 75fe 263f 2637 f33e
00000240: 5e2b 3cbf aeda 52bf 0130 573f 4405 93bd
00000250: 0009 0ebf 2d0b e1be 5204 27bf 3a61 3c3c
00000260: 86d1 03be ba5d b03b e547 50bf a4c0 56bf
00000270: 346c 963e 46e1 4dbf 402b 823e e312 3abe
00000280: 4058 b03f f076 a3be 2280 51be ce23 c0be
00000290: bbbb 7fbe 4868 33be 0c4e 82bf a0f0 2d3f
000002a0: b3d1 04bf 16b1 4abf e2f8 bebe ddef 1abf
000002b0: 4f4f f9bd 1e5d 083d d8c7 17be f4ab a6be
000002c0: 05ce 593f f46c 6a3e 099e 473f 46d5 4e3d
000002d0: 1d9d 243e 6210 a73d 7298 ff3e cbc5 e4bd
000002e0: c876 25bf 23d4 563e afa2 37bf 41c7 8dbc
000002f0: 2493 683d d948 1f3e 2868 e33f afc1 84bf
00000300: 9e15 0ebe ec86 59be 70a7 00be 9da4 e7bd
00000310: 629d eebd dc1a 18bf 8a65 45be 2df3 a2bf
00000320: 905f 273e 3b83 793e 36d7 1cbf b543 70bf
00000330: 3f28 eabe 19af c9be b840 8b3d 610d f63e
00000340: acf7 363f d0c1 97bd 051e b73e 4002 133f
00000350: 66c8 a23c e474 33be 967a a3be 15a0 74be
00000360: 2999 d83d 4f45 2b3e 8f78 873e 9367 d6bf
00000370: 4199 1fbe c4fe 643f bc31 e9be b055 4a3f
00000380: dd21 b03e 1e3c 633f 699c 023f b6ac 273f
00000390: 65ed 02bf a000 a4bf 4c71 19be 5d7b e9be
000003a0: 3f08 623e 0752 a23f 50b3 793e 4837 8cbe
000003b0: 8224 863d 07dc 4dbe 6c0d 89be 30d5 9fbf
000003c0: df2e 08bf f290 1b3f 41c6 10bf 30fe 433f
000003d0: bf06 5c3f 5928 8ebf dc2d 3c3e 8057 cebe
000003e0: d101 a13e f1d4 84be 57e9 0cbe a2e3 553f
000003f0: 3afb ef3d 2f50 8bbe 949c 7bbe 5a30 bfbf
0.7003969 1.1764885 -0.027706398 -0.46364814 -0.2606784 -0.8734823 -0.11304435 0.25585082
-0.561458 -0.20118615 -0.2626221 -0.3955725 -0.2826999 -0.58419204 -0.4824823 0.28866023
-0.109622024 0.10930804 0.0035577219 -0.018721065 0.10365652 0.951892 -0.07649915 -0.13929614
0.083476126 -0.24330133 0.44861397 -0.91519564 -0.38468197 1.3665899 0.048672307 0.3375108
-0.2524141 -0.30557618 -0.09691413 -0.08007722 -0.8134817 -0.13299978 -0.4316881 0.82088774
-0.65985477 -0.5485905 -0.52432984 -0.7939827 0.08440898 0.15806489 1.605455 1.0234262
-0.14035161 -0.14428246 0.24449736 -0.21921277 0.09361427 -0.17404664 0.4505596 -0.5404881
0.37861553 -1.2286685 -0.25033942 -0.0878228 0.541249 0.5558372 -0.81163126 0.3641594
0.5241595 0.6534139 0.6659774 0.4296317 -0.06715797 -0.060237326 -1.3254985 -1.1916902
-1.1420333 0.9058791 0.8641121 -0.54571146 0.091799945 -0.4043933 -0.30671126 0.11706892
0.046241954 0.08443835 1.6697053 -0.70533067 -0.0640181 -0.1360885 -0.2958829 -0.19212909
-0.17829524 -0.22202782 0.23276971 -0.19748391 0.80921924 -0.2878046 1.0594445 0.23284402
1.0238798 -0.29909408 0.53113174 -0.45702922 -1.3580735 0.71971107 -0.16989523 -0.11233365
-0.8037534 0.15812044 -1.0542865 -0.33883095 0.35196382 -0.110089175 0.26076353 0.087540366
-1.0757179 0.03586865 0.29682326 0.52188236 1.1430725 -0.03836579 0.24425653 0.06952822
0.0457134 -0.831861 0.11028795 -0.6248701 0.040658794 0.29454857 -0.3992376 1.4007511
0.090554416 -0.70025384 0.67291886 -0.4241714 -0.79268944 1.5332974 -0.0798251 -0.053907998
0.21961303 0.41468543 0.19933718 0.23954137 -0.08647522 0.8069051 0.6523202 0.47503012
-0.73503673 -0.8236493 0.84057623 -0.07178739 -0.5548248 -0.4395384 -0.6524097 0.01149779
-0.12872896 0.005382267 -0.813597 -0.83887696 0.29379427 -0.80421865 0.25423622 -0.18171267
1.3776932 -0.3192668 -0.20459035 -0.37527317 -0.24973957 -0.17520249 -1.0180068 0.6794529
-0.51882476 -0.7917646 -0.37299258 -0.6052225 -0.1217333 0.03329193 -0.14822328 -0.32553065
0.85079986 0.22893125 0.7797552 0.050496362 0.16075559 0.08157422 0.49920994 -0.111705385
-0.6463437 0.20979361 -0.7173261 -0.017306926 0.05678095 0.15555133 1.7766161 -1.0371608
-0.13875434 -0.21242875 -0.12563872 -0.11310694 -0.11651112 -0.59415984 -0.19277015 -1.2730461
0.16345048 0.24366467 -0.61265886 -0.9385331 -0.4573383 -0.393914 0.067994535 0.48057082
0.7147167 -0.07410014 0.3576509 0.5742531 0.019870948 -0.17525059 -0.31929463 -0.23889191
0.10576088 0.16725658 0.26459166 -1.6750358 -0.15585805 0.8945124 -0.45545757 0.79037
0.34400836 0.88763607 0.5101991 0.6549791 -0.51143485 -1.2812691 -0.14984626 -0.4560193
0.22073458 1.2681283 0.24384809 -0.27385926 0.06549932 -0.20103465 -0.26768053 -1.2486935
-0.5319652 0.60768044 -0.5655251 0.76559734 0.85947794 -1.1106063 0.18376869 -0.40301132
0.31446698 -0.2594371 -0.13760887 0.83550465 0.117178395 -0.27209613 -0.24571449 -1.4936631

fc1.bias f4 [64]
00000000: 7f23 19bf 4571 9ebf 9dc9 a43e f04f 383a
00000010: 2381 5dbe b66c 17bf 30dc 923f 3a06 84bf
00000020: 7135 6ebf 44ec 29bf 317a 90bd 9da4 02bf
00000030: f79c 36bf ab55 99bf 6388 61bf 86d7 b5be
00000040: 9c10 03bf a83c 78bf 5a5e 2cbf ba30 52be
00000050: 1b36 33bf 9608 e9bf c7f3 58bf 54c0 84bf
00000060: d697 35bf dc10 b1bf 16a5 b7bf c776 81bf
00000070: b0d6 ebbe 1a1f 14bf 3c92 d6be ebfc 4dbf
00000080: 186a 873d 1069 c0bd 4beb 81bf b669 fabe
00000090: d2ad a4bf d019 223f 298c 16bf c5b0 82bf
000000a0: b73d 063f 1cff 32bf b520 6ebf 6d0f 57bf
000000b0: 576c 34bf dbe6 f7be 1f6e 11bf 3382 0f3e
000000c0: 47e9 5fbf c622 8abf 6fd6 19bf 6b51 c4be
000000d0: d8fb 88bf b693 d23e 2419 e2be 8fc5 9ebf
000000e0: 4fa7 aa3e 4663 85bf 8b1c b63e e706 b73d
000000f0: 2a2e b1bf 80db 80bf 9fdd 44bf c6c2 0c3c
-0.5981979 -1.2378317 0.3218507 0.00070309546 -0.21631293 -0.59150255 1.1473446 -1.03144
-0.93050295 -0.6637614 -0.07054556 -0.5103243 -0.7133326 -1.1979269 -0.88098735 -0.35515994
-0.5119722 -0.96967554 -0.6733147 -0.205264 -0.70004433 -1.8205745 -0.84746975 -1.0371194
-0.7093481 -1.383327 -1.4347255 -1.0114373 -0.4606223 -0.5785996 -0.41908443 -0.8046405
0.06612033 -0.09395039 -1.0149931 -0.48908776 -1.2865546 0.63320637 -0.5880762 -1.0210196
0.5243792 -0.69920516 -0.93018657 -0.8400791 -0.70477813 -0.48418316 -0.56808656 0.14014511
-0.8746533 -1.0791862 -0.60092825 -0.38343367 -1.0701857 0.4112832 -0.44159806 -1.240404
0.3333077 -1.0420921 0.35568652 0.089368634 -1.3842213 -1.0066986 -0.76900667 0.0085913595

fc2.weight f4 [64, 64]
00000000: 7552 ddbd 76df 3abe 0c44 cbbd fbe3 29bb
00000010: 1851 ecbd 8c98 7ebe 4f6f 7dbe 8031 313b
00000020: d5ef febd 95dd 64be 3f2d 6cbd 6a8b 9f3d
00000030: bb61 ca3c 42c2 8c3d 16b3 38be a8b5 43be
00000040: cf7b 24be 1267 0d3d 104a b5bb 0de3 68bc
00000050: 7fc9 03be 6879 8a3d 4d96 8f3d 5fb7 5fbd
00000060: e037 0bbe 5b59 fcbd 2471 29be a7db 5dbb
00000070: 6efc b6bd 2c4d 16be 53ae adbd 4699 9ebd
00000080: b86d 21be d6eb 15bd 49bc 8dbc 8ea3 fabd
00000090: 882b a23d 5439 52be 0c82 813d d6d6 053d
000000a0: b2a2 93bd dbdb 703d 8cc3 023c daa7 cbbd
000000b0: 2989 24be e9fd ab3d 5a51 69bb 38a0 5abe
000000c0: b009 32be 8ff8 d7bd 574c 4b3d 389c d9bc
000000d0: 530c 65be 1227 cbbd cd82 f7bc df0e 5a3b
000000e0: ad59 8d3b 79ac acbd 50da d4bd 174a 52be
000000f0: 54fa a4bd f6bf 8bbd b915 71be 3f73 edbd
00000100: a9ce 9c3d 915b 15bf 014e aa3d 4341 02bf
00000110: 6373 63bf 5940 fdbd b96b 95be c509 ee3e
00000120: 5ca3 6b3f 3e89 37bd 09c2 ce3e 11d1 0fbf
00000130: 8acd 79bf 3a97 4fbf b76c cf3e c4da 01bf
00000140: a920 a5bc d57d cbbe 961c f5bf 1139 97bf
00000150: a203 6f3d 5dd8 a8be ed6c 61bf 952f 12bf
00000160: acc3 8bbf 2f7f d93e fca2 94be 00f1 a2bd
00000170: d627 8cbd a590 013c 6b23 9dbe b82f 2fbd
00000180: 8e95 e33d f602 053f e9e4 04c0 d49c bbbf
00000190: 06af 6ebf b76a 9a3d a274 083f 9702 a5be
000001a0: bc28 ae3e 98ff acbd cbcb 803d c2f0 633f
000001b0: 4d7d 5abf 34d5 833e 8c41 a23e 2993 0ebf
000001c0: eb11 e83e 7d5b 063e 5d6e 633f 8dcb 4f3e
000001d0: 6bd6 39bd 68ea bd3d d257 24bf c64c 183f
000001e0: affa 19bf 0edd 573f a416 d8bd df37 673a
000001f0: 0df1 5abe 95a5 703c ccbe 2dbf a290 46bf
00000200: dbc4 c4bf 91c4 c4be d62d a2be 0ae7 1c3e
00000210: ea76 5abe 0a84 6bbf 69cd 27be 4c37 1b3f
00000220: b00c 05bf 91c3 8bbf acd1 f9bc 976c eabc
00000230: c5d1 92bd a256 03be a62e 843f 4882 d3be
00000240: 322e 28bf a074 efbe c82e 6ebd 3fab 91bc
00000250: aec3 8ebd 0590 c4bf 1426 623d ad86 8cbe
00000260: 7c25 fe3e 9aa4 6bbf 7ab0 cebd 0072 233f
00000270: cdca af3f 6e1b 71bf 85ea 543f 9ef6 49bd
00000280: 4854 aebd 9180 3abe c188 ba3f 555d 133f
00000290: 30a8 91bf 889b c63d 4548 4fbf ee40 b1be
000002a0: 1115 c2be 7011 15bf c8f9 863f 7833 66be
000002b0: a195 ab3e e7ee 673e 8d58 0ebf be43 6ebd
000002c0: 0edc 85be ed7a c33e b8db 623f 4d37 703c
000002d0: 5fd9 31bf bb3d 10bf c8b2 48bf b46f 42bf
000002e0: c205 18be d33f cebf 4244 48be a075 d9bc
000002f0: cb5b 6ebf dc36 54be beb5 343f bea1 25bf
00000300: a447 2e3f 56a2 c9be f14a e9be a1f8 53bf
00000310: c531 093f 5e94 1abd 68b0 df3e 5626 35bf
00000320: ef76 6bbc ab41 e4bf a778 1fbe f95f d4bd
00000330: 557d 93bf 7f5e 553f 82c4 dfbe f334 463f
00000340: 4ff8 5bc0 04e6 b2be 6072 513f 9444 92bd
00000350: cbda 58bf db3d 88bf 6ae5 69bf c7d3 64bf
00000360: b1f4 4f3e 7b38 52bf 37ed f6be 576f 1cbd
00000370: d1ca d3bf d2cd 843f 8b44 25bf 5abb 85bf
00000380: fc56 9cbc 1614 e6bf 1c61 373f e232 1ebc
00000390: ab91 863d 8fa8 673b 2853 89be 1776 94be
000003a0: f45e 9bbc 4018 0d3f 491b c4bf 5915 dd3e
000003b0: 5174 e6be 3198 963f ca1e 3b3f c5c2 d5bc
000003c0: 788e 8cbf 74c2 dcbe 9d51 05c0 9a79 c3be
000003d0: 629e 27bd 8409 93be da37 d33e e65d 5a3f
000003e0: 9632 ecbe 6753 a5bc b304 4fbd ccda b9bd
000003f0: f1b7 46bf 358a 63bf ba9d b33e 16b5 713f
-0.10806743 -0.18249306 -0.09925088 -0.002592324 -0.11538905 -0.2486288 -0.24749492 0.002703756
-0.12448088 -0.22350152 -0.057660338 0.07790263 0.024704805 0.06872989 -0.18037066 -0.19112265
-0.16062854 0.034522124 -0.0055325106 -0.014214289 -0.12869833 0.06761438 0.070110895 -0.054618236
-0.13595533 -0.12321731 -0.16547066 -0.0033852847 -0.08934866 -0.14677876 -0.08480515 -0.07744078
-0.1576451 -0.036601864 -0.017301695 -0.12238227 0.07918459 -0.20529681 0.063236326 0.032675587
-0.07208766 0.05880342 0.007981192 -0.099441245 -0.16067947 0.08398039 -0.0035601468 -0.21350181
-0.17386508 -0.10545456 0.04963335 -0.026563749 -0.22367983 -0.099195614 -0.030213738 0.0033273024
0.0043136687 -0.08431334 -0.10393202 -0.20536076 -0.08055559 -0.06823723 -0.23543443 -0.11594247
0.07656605 -0.58342844 0.08315659 -0.5088083 -0.8884794 -0.12365789 -0.29183748 0.4649183
0.9204614 -0.04480862 0.40382412 -0.56178385 -0.9757925 -0.8109013 0.4051263 -0.50724435
-0.020157175 -0.3974444 -1.9149349 -1.181429 0.058353074 -0.32977572 -0.8805683 -0.57103854
-1.0919089 0.42479846 -0.29030597 -0.07956123 -0.068435356 0.007908021 -0.30691084 -0.042770118
0.1111251 0.51957643 -2.0764716 -1.4657235 -0.93235815 0.075398855 0.5330297 -0.32228538
0.34015453 -0.08447188 0.062888704 0.8903924 -0.85347444 0.257486 0.31690633 -0.556933
0.4532617 0.13120838 0.88840276 0.20292492 -0.0453705 0.09273225 -0.64196503 0.59492147
-0.6014814 0.8432168 -0.10551193 0.0008820276 -0.21381016 0.014687915 -0.6786926 -0.7756444
-1.5372576 -0.38431218 -0.31675595 0.1532251 -0.21334425 -0.9199835 -0.16386952 0.6063125
-0.51972485 -1.0919057 -0.030495487 -0.028616233 -0.071689166 -0.12826017 1.0326736 -0.41310334
-0.6569549 -0.46768665 -0.058150083 -0.017781852 -0.06970917 -1.5356451 0.055212095 -0.274465
0.49637973 -0.9204804 -0.10092254 0.63845825 1.3733765 -0.9418248 0.8317035 -0.049307458
-0.08512169 -0.18213107 1.4572984 0.5756429 -1.1379452 0.09697634 -0.8096965 -0.3461985
-0.37906697 -0.5822973 1.0544977 -0.22480571 0.33512595 0.22649728 -0.5560387 -0.058170073
-0.2614445 0.38179722 0.88616514 0.014661622 -0.69472307 -0.56344193 -0.783978 -0.75951695
-0.14845946 -1.6113228 -0.19557288 -0.026545346 -0.93108815 -0.20724052 0.70589817 -0.64699924
0.68078065 -0.39381665 -0.45564988 -0.8280125 0.5359157 -0.03773915 0.43689275 -0.7076162
-0.014371618 -1.783254 -0.15573369 -0.10369868 -1.1522623 0.83347315 -0.4370461 0.77424544
-3.4370306 -0.34941113 0.8181515 -0.071419865 -0.8470885 -1.0643877 -0.91365683 -0.89385647
0.20308186 -0.8211743 -0.48227856 -0.03819212 -1.654627 1.0375311 -0.64557713 -1.04478
-0.019084446 -1.797488 0.7163255 -0.009655686 0.06570753 0.0035348271 -0.26821256 -0.28996345
-0.018966176 0.5511513 -1.5320827 0.4318035 -0.45010617 1.1765195 0.73093855 -0.02609385
-1.0980978 -0.43117106 -2.0831063 -0.38178712 -0.04092253 -0.28718197 0.4125355 0.8529953
-0.46132344 -0.02018137 -0.05054159 -0.09074935 -0.7762442 -0.8888276 0.35081273 0.9441694

fc2.bias f4 [64]
00000000: 0484 dcbd 648e 28bf 52bc c1bd 259d 26bc
00000010: 530d 6c3f 20b5 613f dd89 473f 4963 c03f
00000020: e185 4dbd a6cd bbbe c545 f2bd 5ad6 993f
00000030: 6a1b 78be 7608 d3be 6a81 03be 3d2f 383f
00000040: e38c 2c3e 4a82 e13d 55ea 933e a59a adbd
00000050: 0269 643f 30da 49be bba4 1ebe b570 2ebe
00000060: 5e9b 90bd f23c 59be 3e39 c4be d630 9d3d
00000070: 16ce 38be 9ced 7bbe d5e4 a93c 3471 e7bd
00000080: 32ab 52bf 2cdb 283e 3fae 11be 2a02 cdbe
00000090: 47ba 1bbf b239 2fbd 620d 18bf 3c4e 08be
000000a0: 58ae d23e a449 19bf ced6 f23e e03f 04be
000000b0: 54a6 8bbf ba95 35be 71dc 17be 154f 74bd
000000c0: e832 88bf bf02 38bf c1c1 643e 1d87 06be
000000d0: dc8f 9d3e e8a9 023f 1ccc a6bf 32b6 4bbe
000000e0: 9ff4 b0bd b2f4 833e c71b 7e3e 10ea 17be
000000f0: 8329 5fbe 76ee 67be 1f87 223f f467 91bd
-0.107673675 -0.6584227 -0.094597474 -0.010169302 0.9220783 0.88167 0.7794474 1.50303
-0.050176505 -0.36680335 -0.11829714 1.201854 -0.24229208 -0.41217393 -0.12842336 0.7194708
0.16850619 0.11011179 0.2888972 -0.08476762 0.8922273 -0.19712138 -0.15492527 -0.17035182
-0.07060884 -0.21214655 -0.38324922 0.0767533 -0.18047366 -0.2460236 0.020738998 -0.11300889
-0.82292473 0.16489857 -0.14226626 -0.40040714 -0.6083111 -0.042779632 -0.5939542 -0.13311094
0.4114864 -0.5987799 0.47429508 -0.12914991 -1.0910134 -0.17732897 -0.14830185 -0.05964573
-1.0640535 -0.7187919 0.22339536 -0.13137479 0.30773818 0.51040506 -1.3031039 -0.19893721
-0.08640408 0.25772625 0.24815284 -0.14835382 -0.21793179 -0.2264956 0.6348743 -0.070999056

fc3.weight f4 [5, 64]
00000000: 2a6c 23be 88a6 613e 9586 cebe bb4d 133c
00000010: db2c b7be a329 3e3e 5959 1c3e f7d4 16bf
00000020: 06d4 0ebd ddca 51be 803d 7a3c 5f75 b3be
00000030: c00c ffbc e471 95bd f5bd 1bbe dbad 88be
00000040: fbf9 aebd f57c 5abe 72d5 dfbd e931 863d
00000050: cddd c0bd 1b7d 17bc 019c 823e 945d 0d3d
00000060: 5a01 ea3e ca7d 0a3e b7d1 9b3d c72a 93bd
00000070: 4110 a63b 0df9 fabd 8def 8a3d 2571 1dbd
00000080: dffc 8bbd fed7 ca3e 603c 0a3f fc3a 5f3c
00000090: 8f72 7f3e ee8e 19bd e70f 063e 2805 23bd
000000a0: 82fc e8be 53ec d13e c694 c03e ce91 c03c
000000b0: 1654 c43e c991 85bd c1e9 803c 8952 b53c
000000c0: acd4 683d b122 d43e 7ee1 973e 7ce1 713e
000000d0: 8528 c3bc 2b83 463e dfb9 363e 0a06 ffbc
000000e0: e05f ad3c 23fb 83bc 8ac1 89bc 7059 6e3d
000000f0: 8724 f6bc 190b a2bd 1152 193c c221 ec3c
00000100: e043 dc3c 441f ad3d d8d2 ec3e 2c47 80bf
00000110: f04e 69be fa44 f9bc 8267 e83e ac55 ef3e
00000120: 9b07 2d3e 3187 89be 7a42 c1bd a88a 3c3d
00000130: e476 5bbc 0640 44bd bc66 c93d c62c 293f
00000140: 023b 043f b85a 123f f684 d13e c941 36bc
00000150: c6c7 c6bc e582 0d3e 4c63 2d3d 3ef7 843c
00000160: 943d 69bf 988e 243e b434 853d a12c 1c3f
00000170: de31 3bbe f56a 83bf 6ec5 273d be20 163d
00000180: d061 94bd ad51 32ba 2f4e 82bf 32aa 863d
00000190: 965b e9be 9894 15bc 1429 b9be 8e7d ad3d
000001a0: ffec 50bf b835 d3be 8520 f93e 2d19 a63b
000001b0: cb9f 623f a157 8d3d 8d08 313d 542c 883c
000001c0: cc76 d6be 6977 44be 68a6 3b3e 2b92 993c
000001d0: b72c c93e ad9d 1e3f e7ee 5e3e 6405 6fbc
000001e0: d9a4 d5bd 373a 013f fea2 6ebe d2f5 4ebd
000001f0: 6de2 2b3d 8ad4 c4bc ba89 813d fa00 433d
00000200: 5f5d 133d 9ed8 72be 924d 3fbe 00b5 a83e
00000210: fb26 f93e 5ba2 c13e 7c2f 43bf 42e6 e43e
00000220: 5f5d d53c cb0b cd3d b703 503d 2bc1 893e
00000230: 75e0 3e3e 3446 e43e bd04 a43c a16f 73bd
00000240: 5d98 5ebe 88ff e4be 4059 1cbe b203 b6bd
00000250: 3630 1f3e 2423 403e eac7 97bd 0155 2bbd
00000260: 615d 973e f3a3 013d e70b 54bb 3414 5bbf
00000270: 762c a5bd 47a4 9e3f 1e21 f63c c03d 5e3e
00000280: 6efe 81bd 4588 3cbd f096 cb3d 213b 95bc
00000290: 06dc 713e 4c1d 273d 8ec4 d23c 5e2d 1d3e
000002a0: bea7 6f3f 23dc a8be 7547 22bf b41b 0e3e
000002b0: ba78 8abb 7e7b 5cbe c03a 91bc 37e4 3ebe
000002c0: ceac 23bf e1ec 0abf 2b55 3cbe ebf4 dcbe
000002d0: 1de8 6ebf e4a2 64bf 7b2b 183f 89a6 e63d
000002e0: 5737 08bc 22e8 41bf f9ad 513f 6e57 7dbc
000002f0: ef91 6abc 8354 eb3d 4b8d 303e 516a 7abd
00000300: 631c 2b3d 42f8 873e 4480 aebe 0074 28bf
00000310: fda7 e43b 2fee 0a3e 32fc c93d 12a6 18be
00000320: 0515 963d 10e5 0c3e ad65 44be 939d d73c
00000330: 7d6a 583c b1df ecbd fa5c 2bbd 858c 41bd
00000340: 91c4 483e 0090 f53e 93b9 d33d 9527 9abd
00000350: c0cf 89be 04c9 eabd d843 cb3d 17fb 5ebd
00000360: 3103 883e 7c50 ec3c 40df ba3b f3de 5bbf
00000370: 1c9c 173e 52ac 163f c87f df3d 9bdd 16be
00000380: 5315 bc3d d543 ee3e c96c fabe 4e8e b3bd
00000390: ad1c 723e 60a6 0cbe 4cf1 1dbf 4c4d 15be
000003a0: 4479 91be d917 f83e 5b42 2a3f 08a4 17be
000003b0: 9366 cbbd 4d68 30bd 1441 d03d 5f47 e4bd
000003c0: 5c8d cc3e 1341 cc3e 9a9c 69bf 3a3b b2be
000003d0: a022 c63e d88c 693e f4c9 08be 9a88 0c3d
000003e0: 7133 1b3d 0e4f 4dbf 4f3c 223e 178b 3fbd
000003f0: cb5c d4bc 7dc7 3bbe fce5 26bf c3e2 12be
-0.1595923 0.22036183 -0.40337053 0.0089907 -0.3577641 0.1857057 0.15268458 -0.5891871
-0.03487017 -0.20487542 0.015273452 -0.35050485 -0.03113401 -0.072971135 -0.15209182 -0.2669514
-0.08543774 -0.2133673 -0.10929383 0.06552488 -0.09417305 -0.009246136 0.25509647 0.03451307
0.45704156 0.13524547 0.07608359 -0.071858935 0.0050678556 -0.12254534 0.06783972 -0.03843798
-0.06835341 0.39617914 0.53998375 0.013624903 0.24946044 -0.037489824 0.13092004 -0.03979984
-0.45505148 0.41000614 0.37613505 0.023507025 0.38345402 -0.06521947 0.015736463 0.022134082
0.056843445 0.41432717 0.29664224 0.23621172 -0.023823032 0.19385974 0.17844342 -0.03113081
0.02116388 -0.016110962 -0.01681592 0.058190763 -0.030046714 -0.07912273 0.009357945 0.02882469
0.026887834 0.08453229 0.4625461 -1.002172 -0.22784019 -0.030428398 0.4539147 0.4674505
0.16897433 -0.26860955 -0.094365075 0.04603067 -0.013395045 -0.04791262 0.09834048 0.66083944
0.5165254 0.57169676 0.40921754 -0.011124083 -0.024265181 0.13819464 0.042331025 0.016231176
-0.91109586 0.1607002 0.06504193 0.610056 -0.18280742 -1.0267016 0.040959768 0.03665232
-0.07245219 -0.0006802332 -1.018011 0.06575431 -0.45577687 -0.009129666 -0.36164153 0.08471213
-0.8161163 -0.41251922 0.48657623 0.005068919 0.88525075 0.069014795 0.043221045 0.0166227
-0.4188751 -0.19186176 0.18325198 0.018746456 0.39291927 0.61959344 0.21770822 -0.014588688
-0.10431833 0.50479454 -0.23304364 -0.0505274 0.041963983 -0.024027128 0.063250974 0.047608353
0.035977717 -0.23715445 -0.18681934 0.32950592 0.48662552 0.3781918 -0.7624433 0.44706923
0.0260455 0.10012015 0.050784793 0.26905188 0.18640311 0.4458481 0.02002179 -0.05943263
-0.2173781 -0.44726205 -0.15268421 -0.088874236 0.15545735 0.18763405 -0.074111775 -0.041829113
0.2956343 0.031650495 -0.0032355727 -0.855777 -0.08065121 1.2393883 0.030045088 0.21703243
-0.06347357 -0.046028394 0.099408984 -0.018216671 0.23619089 0.040799424 0.02572849 0.15349337
0.9361533 -0.3298045 -0.63390285 0.13877755 -0.0042258175 -0.21531484 -0.01772821 -0.18641745
-0.63935554 -0.542677 -0.18391864 -0.43155608 -0.93322927 -0.8931105 0.59441346 0.11262233
-0.008313975 -0.7574483 0.81906086 -0.015462739 -0.01431702 0.11490729 0.17241399 -0.061136547
0.04177512 0.26556593 -0.34082234 -0.65802 0.0069780336 0.13567422 0.098625556 -0.14907101
0.07328228 0.13759255 -0.19179411 0.026320254 0.013208983 -0.11566103 -0.041836716 -0.04725315
0.19606234 0.47961426 0.1033813 -0.07527081 -0.26916313 -0.11464122 0.099250495 -0.054438677
0.26564935 0.028846972 0.005702883 -0.8588707 0.14805645 0.5885669 0.10913044 -0.14732973
0.09183755 0.46536127 -0.4891112 -0.08767377 0.23643751 -0.13735342 -0.61696315 -0.14580268
-0.2841283 0.48455694 0.665075 -0.14808667 -0.09931674 -0.04306822 0.10168663 -0.111464255
0.399516 0.39893398 -0.9125458 -0.3481081 0.38698292 0.22807634 -0.13358289 0.03430996
0.037890855 -0.8019875 0.15843318 -0.046763506 -0.025923153 -0.18337817 -0.6519468 -0.14344315

fc3.bias f4 [5]
00000000: f442 d3be 9ae0 0c3f 9bc4 0e3f 5719 003f
00000010: 5cc8 e5be
-0.4126202 0.55030215 0.55768746 0.50038666 -0.44879425

in_fn.weight f4 [43]
00000000: 3680 2d3f e6bf 4b3f 77f3 423f 322b 503f
00000010: 752a 8c3f d127 6a3f d5cd 593f e61b 983f
00000020: f33d f03f ca73 af3f 639b 2d3f a1f3 153f
00000030: fb54 543f 8b51 233f cd6c 8f3f 6987 4b3f
00000040: f454 d73e 4d1d fb3b 2a90 af3f d5a6 d43f
00000050: 4b20 ea3e ea48 ef3e 5f04 ad3e 8afe 293f
00000060: 777f 773f 84b3 9b3f e51a 193f e8ea ffbb
00000070: 9150 8a3e 8038 e83e 9153 cb3e aedd 173f
00000080: 2cb0 ce3e 7d4f 0d3e 26c4 523e ff56 9f3e
00000090: 67e5 833e 4fac 163e ffec ee3d 937f 193e
000000a0: 11f2 0e3e 9b44 593e a8e9 033d
0.6777376 0.7958969 0.7615275 0.8131591 1.0950457 0.91467005 0.850797 1.1883514
1.8768905 1.3707211 0.67815226 0.58574873 0.8294217 0.637963 1.1205078 0.79503495
0.42057002 0.007663405 1.371587 1.6613413 0.45727763 0.46735317 0.33792397 0.6640402
0.9667887 1.2164159 0.5980666 -0.0078099854 0.27014592 0.45355606 0.39712194 0.5932263
0.40368783 0.13799854 0.20582637 0.3112106 0.25760958 0.14714168 0.11666297 0.14990072
0.13959529 0.21217577 0.032205254

in_fn.bias f4 [43]
00000000: 0f81 633d 4775 f63d 5797 85bd 26b0 e1bd
00000010: f2c9 9a3e be8b b2bd 233b c83e 048b 223e
00000020: 3a85 19bd 5d7c a83e c4a4 c53e 60bd 33be
00000030: c712 5b3e 1638 26bf 041e 953d 47fd b6be
00000040: fb21 51bf e477 613c 7145 f93e 835c 9f3e
00000050: 5e83 4b3e e5db dc3e 34fc c63e 3ea3 153f
00000060: 79f4 febe 9c50 f0be b537 4abf de3b 81bd
00000070: a773 053f ebcd be3e 96ad c43e 7e39 933e
00000080: 402d b23e e3b1 5e3f 5138 1c3f cb63 a63e
00000090: 1cd6 9a3e 89a0 503f 81d7 b9be ab1e 64be
000000a0: e482 febe b37a 89be f6da 26bf
0.055543 0.12034088 -0.065230064 -0.11019926 0.30232197 -0.0871806 0.39107618 0.15873343
-0.03748057 0.32907382 0.3860227 -0.1755271 0.21393882 -0.6492933 0.07281116 -0.3574011
-0.81692475 0.013761494 0.48685792 0.31125268 0.19874331 0.43136516 0.3886429 0.5845221
-0.49795893 -0.469365 -0.7899125 -0.06310247 0.52129596 0.37266478 0.38413686 0.287548
0.34800148 0.86990184 0.6102343 0.3249801 0.30241477 0.8149496 -0.3629723 -0.22277324
-0.49709237 -0.26851425 -0.6517786

in_fn.running_mean f4 [43]
00000000: 49d4 98bc 31f8 a0be 61dd 35bc 6a27 a7be
00000010: a001 133d 2ab3 bebe 6ff2 60bd a891 5fbe
00000020: 0255 66bd 84bf 3d3d c76b 5fbd b3d7 6d3d
00000030: ff78 40bd fe5d 3c3d a001 13bd 2ab3 be3e
00000040: 05fa b9bd abd4 1d3e 099f 0d3d 96c9 dcbd
00000050: 4188 143d 83bd c4bd 137b 333d 597a ddbd
00000060: 6ff2 603d a891 5f3e 05fa b93d abd4 1dbe
00000070: 8eb7 493d 4f68 a53e 7796 9a3e a833 473e
00000080: d860 063e 0fae da3d 5645 973e b8d2 6a3e
00000090: b3cb 6e3e d27f 0a3e 2a84 553e 1300 5b3e
000000a0: f2d7 7c3e bc39 3d3e 056a 153e
-0.018655913 -0.31439355 -0.011100144 -0.32647258 0.03589022 -0.37246066 -0.054918703 -0.21832907
-0.056233414 0.04632522 -0.054546144 0.058067035 -0.04699039 0.045988075 -0.03589022 0.37246066
-0.090808906 0.15413158 0.034575496 -0.10780637 0.036262754 -0.09606459 0.043818545 -0.108143516
0.054918703 0.21832907 0.090808906 -0.15413158 0.049247317 0.32306144 0.3019292 0.19453299
0.1312288 0.1067773 0.29545087 0.22931945 0.23319893 0.13525322 0.20851198 0.21386747
0.24691752 0.18479055 0.14591224

in_fn.running_var f4 [43]
00000000: 783d be3e 7bd2 d93e 7864 c33e 86e4 ca3e
00000010: 23f3 c83e 4b37 d93e eda5 c83e 9fc2 a93e
00000020: 4fdb cb3e 7f60 ad3e 6244 f73e 1cdb f43e
00000030: 7073 f73e e4b9 e83e 23f3 c83e 4b37 d93e
00000040: 1aa8 133f f97b fa3e 43dc c43e 2a0e a63e
00000050: af20 003f 1f62 e23e 3730 003f 64ed e03e
00000060: eda5 c83e 9fc2 a93e 1aa8 133f f97b fa3e
00000070: 35af 3b3d 82c4 503e 698a 4d3e fa1b 133e
00000080: f7a7 de3d e3e7 b83d 7e54 543e a9a9 333e
00000090: be79 2b3e a0cb ed3d 2491 233e 1107 2b3e
000000a0: f1db 3a3e ce49 1a3e 42b7 fe3d
0.37156272 0.42543396 0.3816259 0.39627475 0.39248 0.42424998 0.3918909 0.33156297
0.39815757 0.33862683 0.4829436 0.47823417 0.4833026 0.45454323 0.39248 0.42424998
0.5767838 0.4892271 0.38449296 0.3243268 0.5004987 0.44215485 0.5007357 0.43931115
0.3918909 0.33156297 0.5767838 0.4892271 0.045821387 0.20387462 0.2007233 0.14366141
0.108718805 0.09028604 0.20735356 0.17545189 0.1674566 0.11611104 0.15973336 0.16701914
0.18247963 0.15067217 0.124372974

fc1.weight f4 [64, 43]
00000000: 3493 0cbe 6c2c 1ebd d0b0 6abe e723 c9bd
00000010: 7744 04be 5ce7 e63c 2649 4a3e 38fc 09bc
00000020: 90a0 5dbc 38a8 923e 12fe d43d 13eb d6bc
00000030: c004 a4bd 8aa9 cdbe 6ec1 903d 941f 213a
00000040: a31a f93c 82b1 a53d a35e 5dbe 60f8 e93e
00000050: 1e6c cabe 6a39 cd3d c864 debe 6c3f b63c
00000060: 5c80 b2be da08 1dbe 8965 02bf 4778 7a3d
00000070: b39f cf3d 7a58 683e 78d0 15bd 9cbe 403e
00000080: c07a 9f3e 5e1a 6c3e 25e8 a63e faa6 08bd
00000090: afe2 423e 3046 863e 4bed dabd a96c 2a3d
000000a0: b3fd aabe 9611 5d3e 7503 9dbe d1fe a7bd
000000b0: 4d00 223d 8b9e 5a3d c5e7 b4bd 5812 0dbe
000000c0: 1835 d53d d339 f63d 6b75 9ebd e636 b3bc
000000d0: 011c fcbc 8f28 fd3d 6299 73be 212c 2a3e
000000e0: 5ae0 d03c 76ec 053e be3c a53c 818e adbd
000000f0: 6519 0bbe 7e96 9ebd 05b5 e03d f4c8 d3bd
00000100: 7300 9cbe 367c a0bc 825a 23be e107 f9bd
00000110: 12d6 593b 0460 ffbd 80c7 003c f650 63bb
00000120: b0c1 2cbe 91aa 55bd 8860 22be b05e be3e
00000130: fd87 f53d fc1b f3bd fc51 1b3e 6b45 04bd
00000140: 66b3 d33c 0bc1 233f 1d9d 31be 637e a93e
00000150: fa60 6bbf a8d9 ed3e 8ac6 4bbe 416d 7b3e
00000160: 6b30 f6bc ecd1 0a3e 767c 27bf 42dc c93e
00000170: da38 d0be d94a b03e 62bb 63bf deb9 af3e
00000180: 957b af3e 33fe 4ebe c024 1a3f 16e5 103d
00000190: 2258 d53e 3da4 a3bd 85cc 933e aa24 c3bd
000001a0: cb92 8ebf cba0 113f 6806 e53e 5211 aebd
000001b0: 1a27 2c3e d6c4 aabe 9c2f 023f c792 c1bd
000001c0: b6b6 fe3e 6620 3cbd 2c4d 4abe 1831 c13d
000001d0: 9314 c7be 323e 78be 1c26 04bd 8c36 76be
000001e0: f7f6 2cbe b122 dcbd d1bc edbd dadf 4fbe
000001f0: c254 373e f9bf 743e 976d c13d 1cc2 f23d
00000200: 33f4 6d3e bf5f 95be 4925 d53e 8192 34be
00000210: edcb 843d 70b8 ffbd 0955 6dbe fadf 2ebe
00000220: 3f56 91be 5c10 e03d d17b a7bf 83b7 1fbe
00000230: 0dc2 223f a568 03be 0331 083f 0109 3b3e
00000240: 6c2b 823e 1b90 743e 5e32 61be 6fda 9c3e
00000250: cb8a 8bbf f9da ab3c 2a44 a33e 04d4 22be
00000260: 248b cc3e 8ce4 9c3e 6d1c ae3e 9b35 b73d
00000270: 3968 823e 5f98 463d 5994 9cbd 8bac 51be
00000280: 11f6 b9bd bba7 5abe fbe5 89be bb4c 10be
00000290: 9243 983d deff 6fbc 54f8 bbbe 0a77 d63d
000002a0: 966b 36bd c790 6a3e 193c 7a3d c222 b23d
000002b0: c79d 0bbd 2b43 d23d 8bd2 463e a63f a339
000002c0: 7f87 be3d 3ad0 763d f738 bebd d78e 7cbd
000002d0: c9b7 84be 90a7 57be 2fc1 033e fba7 8a3e
000002e0: 9aa5 cc3d 55a5 de3d 8634 89bd 4205 01be
000002f0: cc0a 9c3d 17c7 03be d2cb 3cbe c6b4 a9be
00000300: 2d71 013e e68f 1b3e 5791 17bc 9db9 0c3c
00000310: 3778 0b3d 3862 183d 3095 353e 0bd5 a53d
00000320: 5205 40be 0e4b 273e 3106 a23d c848 0bbf
00000330: 3aa7 99bd 2d56 63be 623f d2bb 9c99 e03c
00000340: b4b3 d93e a98e 52bf eea8 38be 1e13 b5be
00000350: 089d 1c3f e994 fd3d fbc2 63bd 194b 44be
00000360: 649f 34bb fa7f c5be 181b 9a3e 19ba fcbe
00000370: 618a 2f3d 5e96 02bf 9972 bbbd a8d1 03be
00000380: e1f7 7a3d 8fa0 d4be dce5 293d e205 10bf
00000390: 5e82 b33e 5395 033f 7183 923e ba8d 1b3f
000003a0: 36b9 353e ba72 56be 3705 3a3e 2813 06bf
000003b0: 82d8 00bf 10ad f9be fe93 9dbe 7013 033f
000003c0: 8c5a 713e 6087 263f e48c 1dbd c77e 63bf
000003d0: 677d 8ebd 1091 35bf d483 b8be 7a9e fbbe
000003e0: 7bda 34bf d26a 2abf 90e3 ebbe 734c d5be
000003f0: c56c 75bf e165 bc3e 6c98 9e3e 5834 0f3f
-0.13728029 -0.038616583 -0.22919011 -0.09821301 -0.12916742 0.028186493 0.19754466 -0.00842195
-0.013527051 0.28643966 0.104000226 -0.026235139 -0.080087185 -0.4016841 0.07068144 0.0006146368
0.03040821 0.080904976 -0.21618132 0.45697308 -0.39535612 0.100207165 -0.43436265 0.022247039
-0.34863555 -0.15335408 -0.5093618 0.06114986 0.10137882 0.22690001 -0.036575764 0.18822712
0.31148338 0.23056933 0.32598987 -0.033362366 0.19031785 0.26225424 -0.10689791 0.041607533
-0.33396682 0.2158874 -0.306667 -0.08202899 0.039551068 0.053373855 -0.08833269 -0.13776529
0.104105175 0.12022748 -0.077372395 -0.021876764 -0.030775072 0.123612516 -0.2378898 0.16618396
0.025497604 0.13078484 0.020170566 -0.08474446 -0.13583906 -0.07743548 0.10972027 -0.10341063
-0.30469093 -0.019590478 -0.15952495 -0.12159706 0.0033239168 -0.124694854 0.0078600645 -0.0034685708
-0.16870761 -0.052164618 -0.15857136 0.37181616 0.11988828 -0.11870572 0.15167993 -0.032292765
0.02584238 0.63966435 -0.1734509 0.33104238 -0.9194485 0.4645512 -0.19899955 0.24553396
-0.030052384 0.13556641 -0.6542429 0.39425856 -0.40668374 0.34432104 -0.889578 0.34321493
0.34273973 -0.20214157 0.60212326 0.035374723 0.41668802 -0.0799031 0.28866974 -0.095284775
-1.1138548 0.56885976 0.4473145 -0.08499397 0.16811791 -0.333533 0.50853896 -0.09451824
0.49748772 -0.045929335 -0.19756001 0.09433192 -0.38882884 -0.24242476 -0.032262906 -0.24044245
-0.16891085 -0.10748804 -0.116082795 -0.20300236 0.17903426 0.23901357 0.09444731 0.1185343
0.23237686 -0.2917461 0.4163001 -0.17634012 0.06484208 -0.124863505 -0.2317697 -0.17077628
-0.28386113 0.1094062 -1.3084661 -0.15597348 0.6357735 -0.12832887 0.53199786 0.18265153
0.25423753 0.23883097 -0.2199187 0.30635402 -1.0901731 0.020978438 0.31887943 -0.1590119
0.39949906 0.30643117 0.34006062 0.08945771 0.2547014 0.048485156 -0.076454826 -0.20475976
-0.090801366 -0.21353047 -0.26933274 -0.1409177 0.07434763 -0.014648406 -0.36712897 0.10471924
-0.044536196 0.2290679 0.06109247 0.08698036 -0.034086015 0.102667175 0.19416253 0.00031137204
0.093031876 0.060257174 -0.09288209 -0.06165966 -0.25921467 -0.21060014 0.12866662 0.27081284
0.099925235 0.10871378 -0.06699471 -0.12599662 0.07619247 -0.12868915 -0.18437126 -0.33145732
0.1264083 0.15191612 -0.00925096 0.0085891755 0.034050193 0.037203044 0.17732692 0.08097275
-0.1875203 0.16337225 0.07911337 -0.5440793 -0.07502599 -0.22200842 -0.006416247 0.027416997
0.42519915 -0.8224893 -0.18033192 -0.35366148 0.6117711 0.12381918 -0.05560587 -0.19169272
-0.0027560825 -0.385742 0.30098796 -0.4936073 0.042856578 -0.5101069 -0.09152717 -0.12872946
0.061271552 -0.41528746 0.041478977 -0.56258976 0.350604 0.51399726 0.28615907 0.6076313
0.17746434 -0.20942202 0.18166052 -0.5237298 -0.50330365 -0.4876485 -0.30776972 0.51201534
0.23569697 0.65050316 -0.038464442 -0.8886532 -0.06957512 -0.7092447 -0.36038077 -0.49144346
-0.70645875 -0.66569245 -0.46072054 -0.4165989 -0.95869094 0.36796477 0.30975664 0.55939245

fc1.bias f4 [64]
00000000: 1657 0c3f a6bf e73e ffb0 27bf 21ec 2ebe
00000010: 8075 c53c 35c5 5ebf 6c04 6bbe 9e22 78bf
00000020: 901a 453f 6b58 46bf 54ef 113e 53d2 6bbe
00000030: 90cf 4ebf 139b 1cbe b905 183e fae9 a93e
00000040: 02d1 413f 3e37 0bbf 108f 30be 2902 f1be
00000050: 6809 a13e 1de2 d93d 8ced debe c673 f43e
00000060: ad76 f0bd 3011 073f 6ea1 1bbf c13b 11be
00000070: 184e 5e3f c886 6cbf 18fb 67bf 17f2 f6bd
00000080: 9f82 3ebf 812c f7be af10 dbbe 182c b1be
00000090: f56e 153e ca61 58bf 7f4e 92be 0050 efbe
000000a0: c7af 14bf f509 d8be c198 333e 44f0 99be
000000b0: 7fbe eabe d7b3 3fbf 0639 1fbf 56df 75bf
000000c0: 7f80 89be 2651 7cbf 1936 d1be 99f9 abbe
000000d0: 6101 64be 3bd4 e53e 0de4 48bf 9451 05bf
000000e0: 40f2 0dbf f122 5bbd 8b25 353f 82e4 e03b
000000f0: ab1a 8d3f 2ecf 5cbe c85b 83be 1031 fdbe
0.5482038 0.45263404 -0.6550445 -0.17082264 0.02410388 -0.87019664 -0.22950906 -0.9692782
0.76993656 -0.77478665 0.14251453 -0.23029451 -0.80785465 -0.15293531 0.14845933 0.33186322
0.75709546 -0.5438117 -0.17242074 -0.4707196 0.3145249 0.10638831 -0.4354061 0.47744578
-0.117413856 0.527606 -0.607932 -0.1418295 0.8683791 -0.9239316 -0.90617514 -0.12057894
-0.7441806 -0.4827614 -0.42786166 -0.34603953 0.14593108 -0.84524214 -0.28575513 -0.46740723
-0.58080715 -0.42195097 0.1753874 -0.3006612 -0.45848462 -0.7488379 -0.62196386 -0.9604391
-0.26855847 -0.9856132 -0.40861586 -0.33588865 -0.22266151 0.44888481 -0.7847298 -0.52077603
-0.5544777 -0.05350012 0.7076041 0.0068631778 1.1023763 -0.21563408 -0.2565596 -0.49451494

fc2.weight f4 [64, 64]
00000000: 0d39 99be a3fe 65be d806 2cbe 98b2 c8bd
00000010: 5b9c 073e 4820 013c 5dc2 bebd 2976 1b3d
00000020: 5b76 f4bc 5b63 febc 3866 94be 421f 20be
00000030: 9aa6 bcbd 6855 9dbd e4b4 7cbe 844a e23d
00000040: 7ac1 45be fdd3 bcbc 69eb 1fbe f673 1c3e
00000050: 45e6 a4be 53ee 33be 24a6 7d3d 93aa 2dbe
00000060: dc0e 753d 7d38 9fbe 760f 8a3c 6464 0ebe
00000070: eadf 3dbe 82d5 e7bd d9cb 19be dea0 953d
00000080: 40ad 1bbe 55bd 693d 471d 7bbd 77bc 4bbd
00000090: b2b0 043c 8690 4ebe 20e5 82bc 68c1 2abd
000000a0: f6f8 7f3c 8fa4 cabd 588d bebe 5be0 72bd
000000b0: f5bb 09be bf13 6cbd 410d 63bc 07d3 b03d
000000c0: 05fe 15bd a198 803c fe6f 453c 6bbc 82ba
000000d0: 1c6a 44be 75ba 003d 0540 b4bd b3ae ffbd
000000e0: 80a6 dbbd b031 a33d 92b1 c9bc 4c37 783d
000000f0: 62f5 2cbe 694d 6bbd a720 123e cd50 16be
00000100: 643e 3b3d 4755 203e 11c3 343f eba7 e23e
00000110: 1298 153e c0ec ac3e e9ef c03e 3468 c33e
00000120: 6cfd 2d3e 0eea ca3e 8247 f9bd 1e5c 4fbe
00000130: 9bf6 a63e aef4 0f3e d968 26be d6f0 09bd
00000140: 80b2 bc3d a910 d43d c979 80be 320c be3e
00000150: 4d5d 95be 8989 053e 6b8d b83e b615 073e
00000160: 6138 9e3d 5ac2 0a3e 0d18 8d3e f21b e83d
00000170: b77b 6f3e 3f25 833e 12b6 9c3e 41b1 7cbc
00000180: 42f2 2a3f e9db 813e 1319 fe3d 7c00 c53e
00000190: 7a31 1ebd 1360 b33e db41 5f3e 6d20 273f
000001a0: bf05 8f3e 998c 2a3f 1ece 323e 3e20 5c3d
000001b0: 5c0c 3b3f 4095 dd3e 06b6 223e fe68 0a3f
000001c0: e68e 043f 069e 1c3f c30e 663c a439 cd3e
000001d0: 65c1 113d 9752 a03b 81c6 d13e 8a2d 213f
000001e0: d253 cb3e 6ea5 613e ac21 d83d 036a d5bb
000001f0: 8836 1b3d 2452 2ebe d476 2e3f be43 0d3f
00000200: 523f 00be 954e 76bc 2c6d cabd 5b17 17bc
00000210: 0d9f b23d 4c13 3fbd 9ed1 a33d 793c a2bd
00000220: 0521 0bbe 1cb0 223d f3b1 eabd d74e 58be
00000230: ecab 79bd d7e5 b7bc 9660 adbd 6e77 0e3e
00000240: 2dd1 1b3c 05fe 62be c633 b8bd 641c 5f3d
00000250: df10 e2bc 2af3 3cbc a0be 0b3d 25c8 9f3d
00000260: 9a20 eabd 6386 99bd 1d3e 533d fe7c e33c
00000270: f3c7 08be f5c0 5d3d 5281 4bbc d600 28bd
00000280: 9f03 1ebe 8b32 c83c 7b08 60bd 4f16 2fbe
00000290: 30b8 cbbd cfa9 05be 0ac0 7b3c 1dac 8f3d
000002a0: 038a b33d e04c 38be 0e2b d43b 8d6a 42be
000002b0: 26db 15be 2789 b93d 7baa 393d a0cf 963b
000002c0: 6132 1fbe 2ae9 9e3d 97b5 71bc 3048 ba3b
000002d0: ed15 61bd ba13 f1bc 33bf 2e3c 1ed0 083d
000002e0: 477e 413d ae39 aebd 5731 ba3d 5338 24bc
000002f0: c06a 3abe 525d 853c f804 2abd c482 54be
00000300: cfb4 7cbf d6e8 fcbd ab2c 71be a191 d3bd
00000310: 7c9a 913e 7893 a2be 8d9b bc3e c942 d93e
00000320: 6fee b9be e8c9 b83e 5aa9 6fbd 505c 83bf
00000330: 5961 7dbe b6f2 30be a4a4 513f 5d76 243a
00000340: 986c 01bf 6630 163e 7880 2e3f 1b97 fc3d
00000350: 6670 60bf 2bb8 883d 8abc b23e 0133 bfbe
00000360: b04e 6abe bebc cebe 99a4 a33e e812 03be
00000370: b289 c0be 134c 52be 7f30 84bd f4c8 3fbf
00000380: 2035 7e3e b51d 11be f1d1 2a3e 5f15 11bd
00000390: cf92 93be 66bf 03be cf0b 053e 6fb5 c93d
000003a0: efb0 3d3e 1bbd bf3e 514d 82be 8024 e23e
000003b0: 804a b93d ab1a 44bd e9d6 09bb 17e1 4ebe
000003c0: 20bf ac3e aedc 073f d2d6 f03d 6da7 9c3e
000003d0: 5764 a43e 7b6a 57be cd7a 85be cb9d 333e
000003e0: 32c3 7f3e 6288 913e c698 02be 6573 bb3e
000003f0: c65d 5cbf af49 5cbe c791 323d a66e 833e
-0.2992634 -0.22460417 -0.16799486 -0.09799689 0.13243239 0.007881232 -0.093144156 0.037954483
-0.029841593 -0.031053236 -0.28984237 -0.15636924 -0.09211464 -0.076823056 -0.2467838 0.11049369
-0.19312087 -0.023050303 -0.15617146 0.1527861 -0.32206932 -0.17571382 0.061926022 -0.169596
0.059828624 -0.31097785 0.016853075 -0.13905483 -0.18542448 -0.1132002 -0.15019168 0.073060736
-0.15202808 0.057065327 -0.061307218 -0.04974028 0.008098768 -0.20172319 -0.015978396 -0.041688353
0.015623322 -0.09894668 -0.37217212 -0.059295993 -0.13450606 -0.05763602 -0.01385814 0.08634
-0.036619205 0.01569778 0.012050627 -0.0009974366 -0.19181103 0.03142782 -0.08801273 -0.12484493
-0.10725117 0.079684615 -0.024620805 0.06059961 -0.16890481 -0.05744687 0.14270268 -0.1467926
0.045713797 0.1565753 0.7061015 0.44268736 0.14608791 0.33774376 0.37683037 0.38165438
0.16991204 0.39631695 -0.12171842 -0.20249984 0.3261002 0.14058182 -0.16250934 -0.033676945
0.09213734 0.1035474 -0.25092915 0.3711868 -0.29172745 0.13040747 0.36045393 0.13191876
0.07725597 0.13550702 0.27557412 0.11333455 0.23387037 0.25614354 0.3060766 -0.01542312
0.66775906 0.2536309 0.12407126 0.38476932 -0.038621403 0.35034236 0.21802466 0.6528385
0.2793407 0.66620785 0.1746144 0.053741686 0.73065734 0.4327793 0.15889749 0.54066455
0.51780546 0.61178625 0.014041605 0.4008304 0.035584826 0.004892658 0.4097176 0.6296011
0.39712387 0.22035763 0.105532974 -0.0065128817 0.037893802 -0.17023522 0.6815007 0.5518149
-0.12524155 -0.015033384 -0.09884104 -0.009221877 0.08721743 -0.046649262 0.07998966 -0.079216905
-0.13586815 0.039718732 -0.11459722 -0.21123825 -0.060954973 -0.022448463 -0.08465688 0.13912746
0.009510321 -0.22167213 -0.0899425 0.054470435 -0.027595935 -0.011532584 0.03411734 0.078018464
-0.114319995 -0.07496335 0.051572908 0.027769562 -0.13357525 0.054139096 -0.012420969 -0.041016422
-0.15431069 0.024438163 -0.054695588 -0.17098354 -0.0994724 -0.13053058 0.01536561 0.0701525
0.08766558 -0.17998075 0.006474859 -0.18985958 -0.1463438 0.09059363 0.0453286 0.0046023875
-0.15546562 0.07759316 -0.014752767 0.005684875 -0.05495255 -0.029428352 0.010665703 0.0334016
0.047239568 -0.08507095 0.09091442 -0.010023194 -0.18204784 0.01627985 -0.041508645 -0.20753008
-0.9871339 -0.123490974 -0.23552196 -0.10330511 0.28438175 -0.31753135 0.36837426 0.42433766
-0.36314723 0.36091542 -0.058511116 -1.0262547 -0.24744166 -0.17280087 0.81891847 0.0006273741
-0.50556326 0.146669 0.6816478 0.123335086 -0.87671506 0.06675752 0.3490947 -0.373436
-0.2288158 -0.40378374 0.31961516 -0.12800181 -0.37605053 -0.20536833 -0.064545624 -0.74916005
0.24824953 -0.14171489 0.16681649 -0.03542077 -0.28822944 -0.12865981 0.12992786 0.09849059
0.18524526 0.37448964 -0.25449613 0.44168472 0.09047413 -0.047876995 -0.0021032637 -0.20203052
0.33739567 0.53071105 0.11759724 0.30596486 0.32107803 -0.21036713 -0.26070252 0.17540662
0.24976805 0.28424364 -0.12753591 0.36611477 -0.86080587 -0.21512483 0.043596055 0.25670356

fc2.bias f4 [64]
00000000: a69f 82bd e882 38bf ca0d 403e 8efa 30bf
00000010: 309e cfbe 7826 49bf e44b 593e b9f0 0d3f
00000020: 0749 8a3d 780a 57be 3010 61bf 2dfa 1fbf
00000030: 3c28 85bc 30d0 73bf 0dc7 fc3d 021d 203e
00000040: f383 83bf 9e0b 42bf ac4d 82bd 228e 00bf
00000050: 3321 08be 0792 34be f4f5 863d f53d b33e
00000060: 4422 11bf 2027 d33e bd76 77bf f8e4 1bbe
00000070: 3c38 3ebe 7c11 b6bd d30a 9e3d 5db5 3a3e
00000080: 3d31 ee3e a21e 013f 0670 d3be d6cd 92bd
00000090: c005 663f e682 bbbe aeb2 d1be e42e 30be
000000a0: 17d4 77bf e394 133f 7736 54be 7b8e 9dbe
000000b0: 6e80 7dbe 9401 663f 88fa 54be 647c 76be
000000c0: 760d a2be 5766 10bf 7a12 353f 7ded 20be
000000d0: 3178 efbe 4905 dfbe ec04 d43c d48c d83d
000000e0: b039 4dbf 26f4 27bf f692 98bc cb9f 33b9
000000f0: 4baf 453f bbeb 5cbf a897 7e3f 52e6 2d3e
-0.06378107 -0.7207475 0.1875526 -0.69132316 -0.40550375 -0.78574324 0.21220356 0.5544544
0.0675221 -0.21000087 -0.87915325 -0.6249111 -0.016254537 -0.95239544 0.123426534 0.15636066
-1.0274643 -0.75798976 -0.06362471 -0.5021688 -0.13293914 -0.1763383 0.065898806 0.35008207
-0.5669291 0.41240788 -0.96665555 -0.15224063 -0.18576139 -0.08890054 0.07716908 0.18233247
0.4652194 0.50437367 -0.41296405 -0.07168166 0.89852524 -0.36623305 -0.40956634 -0.17205387
-0.96808 0.5764906 -0.20723902 -0.30772766 -0.24756023 0.8984616 -0.20798695 -0.24070889
-0.31650895 -0.5640616 0.7073132 -0.15715595 -0.46771386 -0.4355872 0.025881253 0.10573736
-0.8016615 -0.65606916 -0.018624764 -0.00017130298 0.772206 -0.86297196 0.9945016 0.16982391

fc3.weight f4 [1, 64]
00000000: f153 c53b 2d5e 0dbf 61be 0c3c 354e 82be
00000010: 978a 93bd 59ec e5be d0fc 803c 3ce0 983d
00000020: 4c57 23be 7f06 98bc 3ce0 efbe 004e dbbe
00000030: 7f4e d83c 93c1 82be 3e30 8cbb ac84 883d
00000040: d241 fbbe e5ae 59be 48c6 7dbc a218 65be
00000050: 8058 c3bc 083f 723d 475f 1c3b 1d21 963d
00000060: cfda 82be cb53 723d 3e46 acbe 09c4 80bd
00000070: 9dcb 3b3c aa0f f5bd a785 b6bd 9ed9 113d
00000080: 52f2 2a3d 779f ea3c 228b e5be cffd d73c
00000090: 0ec1 4d3e 8362 febe dfd2 98be 2d9d e53c
000000a0: f36c 25bf bc1f b93d beb9 8bbc da19 cdbd
000000b0: 1ad7 ccbe 13c4 553e 5797 1cbe 13ba 7d3e
000000c0: 14ea 33bc 6f5a 10be 71a7 1a3e a6f2 8d3c
000000d0: cfc6 6fbe a8e3 67be ac8a 823d a917 1a3d
000000e0: fc36 b1be d1d7 85be cf26 84bd 41f2 c13c
000000f0: f8ca ed3d 26b3 12bf e9fa c53e 9e64 83bc
0.0060219695 -0.55221826 0.008590312 -0.25450292 -0.07204168 -0.4490688 0.01574555 0.07464644
-0.1595127 -0.018557785 -0.46850765 -0.42832947 0.026404617 -0.2553831 -0.004278212 0.0666593
-0.49073654 -0.21258123 -0.015489168 -0.22372678 -0.023845911 0.059142143 0.00238605 0.073305346
-0.25557563 0.059161942 -0.3364734 -0.06287391 0.011462119 -0.11965878 -0.08912211 0.035607927
0.041735 0.028640492 -0.44832712 0.026366143 0.20093176 -0.49684533 -0.29848382 0.028029049
-0.6461937 0.09039256 -0.017056342 -0.100146964 -0.4000786 0.20875578 -0.15292107 0.24778013
-0.010981102 -0.14096998 0.15102936 0.017327618 -0.23415683 -0.22645438 0.06374106 0.03762022
-0.34612262 -0.26141217 -0.06452715 0.023675086 0.11610979 -0.5730461 0.38667992 -0.016039189

in_fn.weight f4 [8]
00000000: 0d3e 1e3f 7b9d 2e3f 52ad 1c3f 5a07 3a3f
00000010: 29ff 173f f704 1c3f b2c1 093f 1f12 053f
0.6181343 0.68209046 0.61201966 0.7266747 0.5937372 0.60945076 0.5381118 0.51980776

in_fn.bias f4 [8]
00000000: 4af7 8e3c 04e4 663e d4fb 783d d55b 4c3e
00000010: b0fa 9e3d 4033 143e b2a8 5b3c 7de8 d33d
0.017451901 0.22547919 0.060787037 0.19956906 0.077626586 0.14472675 0.013406919 0.10347078

in_fn.running_mean f4 [8]
00000000: b49c c8bc d960 abbe 7a4e 46bc 2f32 b1be
00000010: 9fd4 1e3d e734 cdbe 117e 4ebd e6d1 6abe
-0.024488784 -0.33472326 -0.012103671 -0.346086 0.03877699 -0.40079424 -0.050413195 -0.22931632

in_fn.running_var f4 [8]
00000000: b919 b63e bf69 cf3e 2e37 be3e ae33 c53e
00000010: 5725 c33e 9fa8 cd3e 90b6 c23e cfde 9f3e
0.355665 0.40510365 0.37151474 0.3851599 0.38114426 0.4016771 0.3802991 0.31224677
