discrete/src/envs/pan_mpe/pretrained_models/simple_crypto_maddpg_episode_10000.pt (torch_old, 578597 bytes, 204 tensors)

in_fn.weight f4 [4]
0	0x3eec4375	0.46145216
1	0x3f508c13	0.81463736
2	0x3f4a5602	0.7903749
3	0x3dd9f157	0.10641735

in_fn.bias f4 [4]
0	0x3e03ee20	0.12883806
1	0xbdf5906b	-0.11990436
2	0x3e503332	0.2033203
3	0x3e4e3cc1	0.20140363

in_fn.running_mean f4 [4]
0	0x3e8c7810	0.2743535
1	0x3e55d715	0.20882829
2	0x3e884302	0.26613623
3	0x3e546a47	0.20743667

in_fn.running_var f4 [4]
0	0x3e4beb87	0.19914065
1	0x3e2932cc	0.16523284
2	0x3e47f57a	0.19527236
3	0x3e2860ed	0.16443224

fc1.weight f4 [64, 4]
0	0xbe932bb8	-0.28744292
1	0x3f67de96	0.90574014
2	0xbda33df8	-0.07970804
3	0x3eb0896d	0.34479848
4	0xbe3ad1ef	-0.18244146
5	0xbdd01f28	-0.101621926
6	0x3c2638ef	0.01014541
7	0xbddd2a29	-0.10799057
8	0xbe0eab4f	-0.13932537
9	0xbf2d5ba0	-0.67717934
10	0xbcb02f89	-0.021507042
11	0xbeaf4b22	-0.3423701
12	0xbd3cf628	-0.04613319
13	0x3e939d21	0.28830817
14	0xbe8afd66	-0.27146453
15	0xbe2b3e71	-0.16723038
16	0x3d21f9e5	0.03954496
17	0x3e8be851	0.2732568
18	0x3c334e41	0.01094395
19	0x3e89d727	0.2692196
20	0x3d85e22d	0.0653728
21	0x3e0399df	0.12851666
22	0x3ea0ea7d	0.314289
23	0xbec9cfb8	-0.3941629
24	0xbebd3098	-0.36951137
25	0xbe00fc02	-0.12596133
26	0xbdfcf489	-0.12351329
27	0x3dcd39bb	0.10020777
28	0xbefbb9d3	-0.4916521
29	0xbe2e2576	-0.17006478
30	0xbeee149b	-0.46500096
31	0xbe143bf1	-0.14475991
32	0x3ebb03fe	0.36526483
33	0x3d7100e7	0.05883875
34	0x3e89a73b	0.268854
35	0x3d8234bf	0.06357717
36	0x3e0d13d1	0.1377709
37	0xbd92bbfa	-0.0716476
38	0xbdd4c382	-0.10388853
39	0xbe8a32ec	-0.26991975
40	0xbeb2995e	-0.34882635
41	0xbe7d49cc	-0.24735183
42	0x3f09b143	0.53786105
43	0xbc72c463	-0.01481733
44	0xbe8cb194	-0.2747923
45	0xbdbd8bd0	-0.09255183
46	0x3f25b44c	0.64728236
47	0x3e0cb0a9	0.13739266
48	0x3e6b9f17	0.23009907
49	0x3d918438	0.07105297
50	0x3e989a74	0.29805338
51	0xbea84a68	-0.32869267
52	0x3ca46633	0.020068264
53	0x3d6538e2	0.05596245
54	0x3d4df87e	0.05028581
55	0xbe4032ae	-0.18769333
56	0x3d9c3400	0.07627106
57	0x3dd5e121	0.104433306
58	0xbe94e4b2	-0.2908073
59	0x3da8a4f9	0.08234591
60	0x3e48944e	0.19587824
61	0x3c7f61a1	0.015587241
62	0x3dc7c77f	0.09754848
63	0x3e467d08	0.19383633
64	0x3d7a3ddd	0.061094154
65	0x3eeebdda	0.4662922
66	0xbeb9c915	-0.36286226
67	0xbd3ce7b2	-0.0461194
68	0xbe82e7fc	-0.25567615
69	0x3f6102da	0.87894976
70	0x3ee3aa48	0.44465852
71	0x3d97d6cb	0.074140154
72	0x3e2fcbe3	0.1716762
73	0xbea9a967	-0.33137056
74	0xbe034feb	-0.12823455
75	0xbe448b19	-0.19193687
76	0xbd55e3b4	-0.052219108
77	0x3b7e6e8a	0.003882321
78	0x3eaecd07	0.34140798
79	0xbe883291	-0.2660108
80	0x3a28767b	0.00064263464
81	0x3d15e536	0.036595546
82	0xbe71c9e0	-0.23612165
83	0xbcc947fb	-0.024570456
84	0x3eaf723d	0.34266844
85	0xbe8a204a	-0.2697776
86	0x3d821966	0.063525006
87	0x3e1affeb	0.15136687
88	0x3e40f0f0	0.1884191
89	0x3dd32766	0.10310249
90	0xbefe1db3	-0.49632034
91	0xbeceafb5	-0.4036843
92	0xbcb7728a	-0.022393484
93	0x3e224652	0.15847138
94	0xbed269cc	-0.41096342
95	0xbdd264d9	-0.102731414
96	0x3e70b2e0	0.23505735
97	0x3ed5063c	0.4160632
98	0xbe4d4c6b	-0.20048682
99	0xbe14dcc2	-0.14537337
100	0xbedbc514	-0.42923796
101	0xbe9059d9	-0.28193548
102	0xbe5793c7	-0.21052466
103	0xbdad52bd	-0.08463047
104	0xbec6d12b	-0.38831457
105	0xbe2b6c17	-0.16740452
106	0xbecff3b2	-0.40615612
107	0x3f0bc396	0.54595315
108	0x3e9c29a8	0.3050053
109	0x3e374d79	0.17900647
110	0x3e4e394b	0.20139043
111	0xbd511a55	-0.051050503
112	0xbe3932de	-0.1808581
113	0x3de28959	0.11061353
114	0x3dc65316	0.09683816
115	0xbe292ffe	-0.16522214
116	0x3df733b5	0.12070409
117	0x3dc48004	0.095947295
118	0xbd83bf30	-0.064329505
119	0x3cea48ea	0.028599221
120	0xbf6d6ec4	-0.9274714
121	0xbf3f5a19	-0.74746853
122	0xbe1d3f84	-0.1535626
123	0xbecbfe44	-0.39842427
124	0xbaea41de	-0.0017872413
125	0xbede64dd	-0.43436328
126	0xbd425422	-0.047443517
127	0xbea2f801	-0.31829837
128	0xbe1ef0fd	-0.15521617
129	0x3cf58af0	0.029973477
130	0x3e6c0664	0.23049313
131	0xbd61fd29	-0.055173073
132	0x3d67f732	0.05663223
133	0xbf2284e6	-0.63484037
134	0x3e97681d	0.2957162
135	0xbe663db7	-0.2248448
136	0x3f0c8242	0.5488626
137	0x3f219ae9	0.63127
138	0x3e60f77f	0.21969412
139	0x3bf86853	0.007580796
140	0xbebaee07	-0.36509725
141	0xbe35ceb1	-0.17754628
142	0x3e9b10a6	0.3028614
143	0x3b836657	0.0040100026
144	0xbf12a280	-0.57279205
145	0xbe83c42a	-0.257356
146	0xbf099da5	-0.5375617
147	0xbf0173d6	-0.50567377
148	0x3dd170b6	0.10226576
149	0x3e70e578	0.23525035
150	0x3e50e3b5	0.20399363
151	0xbea6d33c	-0.32583034
152	0x3ebf9444	0.37417805
153	0xbdd3f013	-0.10348525
154	0xbe3d54ff	-0.18489455
155	0xbcd689f9	-0.026188837
156	0xbe7d608b	-0.2474386
157	0xbe52589e	-0.20541617
158	0xbeefdd16	-0.46848363
159	0xbf07309a	-0.52808535
160	0x3d0e96ac	0.03481166
161	0x3df10f19	0.11770458
162	0xbdef0792	-0.11671366
163	0x3d9c8bcc	0.07643852
164	0xbe8ea9cc	-0.2786392
165	0x3d919c84	0.07109931
166	0x3e8a3268	0.26991582
167	0xbde162dc	-0.11005184
168	0x3e838d0b	0.25693545
169	0x3eb59c14	0.3547064
170	0xbec6cd44	-0.3882848
171	0x3db05fcc	0.08612022
172	0x3dfeecea	0.124475315
173	0xbdec8557	-0.1154887
174	0x3e0efa37	0.13962637
175	0xbe945ad5	-0.2897555
176	0x3e288e60	0.16460562
177	0xbcfb994f	-0.030712752
178	0x3e5d8b16	0.21635088
179	0x3cd536fb	0.026027193
180	0x3e1ee918	0.15518606
181	0x3e0418e8	0.12900126
182	0xbe0f6a8b	-0.14005487
183	0xbe1553cf	-0.14582752
184	0xbef18ed8	-0.47179294
185	0x3e9599ef	0.29219005
186	0x3ed55679	0.41667536
187	0xbd41cd48	-0.047314912
188	0xbe205d10	-0.156605
189	0xbe88bad7	-0.26705047
190	0xbe71761c	-0.23580211
191	0xbd9b8256	-0.07593219
192	0xbeb9d5e4	-0.36295998
193	0xbe2f0999	-0.17093505
194	0xbe174148	-0.14770997
195	0xbcc4a533	-0.024004554
196	0xbdda84eb	-0.10669883
197	0x3da7b754	0.08189264
198	0xbe9368de	-0.28790945
199	0xbeb6465c	-0.35600555
200	0xbe96fe21	-0.2949076
201	0x3f3618e1	0.7113171
202	0xbe620aca	-0.22074428
203	0x3e801bad	0.25021115
204	0x3de87a58	0.1135146
205	0xbd6e4578	-0.05817172
206	0x3d4da651	0.05020744
207	0xbe08f5f8	-0.1337508
208	0x3e132b0d	0.14371891
209	0xbd7002f1	-0.058596555
210	0xbc9fd8ae	-0.0195125
211	0xbb633262	-0.0034667482
212	0xbe06a9e4	-0.13150746
213	0xbd211482	-0.0393262
214	0x3e468627	0.19387113
215	0xbe6dfe63	-0.23241572
216	0x3f203c34	0.6259186
217	0x3e884593	0.2661558
218	0x3e12b512	0.14326885
219	0x3d1407c9	0.036140237
220	0xbec3ae33	-0.3821884
221	0xbe0e7083	-0.13910107
222	0xbe1f9489	-0.15584005
223	0x3d1d7727	0.03844371
224	0xbda1cfa4	-0.079009324
225	0x3d14460f	0.036199626
226	0x3f0700f8	0.52735853
227	0x3e00c659	0.12575664
228	0x3ef36083	0.4753457
229	0x3e8734b9	0.26407412
230	0x3e76f929	0.24118485
231	0x3daa7725	0.08323506
232	0x3dcb23ee	0.099189624
233	0x3dcdfa8b	0.10057553
234	0x3dbc8b14	0.092062145
235	0xbd938225	-0.072025575
236	0x3c970999	0.018437194
237	0x3ca5eb0e	0.020253684
238	0x3d2267ae	0.039649658
239	0x3da9a65b	0.08283683
240	0x3e949d3e	0.29026216
241	0xbed003ca	-0.4062789
242	0x3e22a026	0.15881404
243	0xbea553a1	-0.32290366
244	0xbe46a442	-0.19398597
245	0xbd8e4b2a	-0.0694793
246	0xbe8ac51f	-0.27103516
247	0xbdb44b0f	-0.08803379
248	0x3e5a067f	0.2129154
249	0x3da05267	0.07828217
250	0xbdbd4398	-0.09241408
251	0x38961442	7.156331e-05
252	0xbe9fe1c9	-0.31226948
253	0xbd1baad8	-0.038004726
254	0xbe0dafce	-0.13836595
255	0xbe58acd5	-0.2115968

fc1.bias f4 [64]
0	0xbe21b201	-0.1579056
1	0xbdaf866b	-0.0857056
2	0x3ed9973c	0.42498195
3	0x3e5d1c84	0.21592909
4	0x3c811325	0.0157562
5	0xbe8c00e2	-0.27344424
6	0xbe5e8c82	-0.21733287
7	0x3eb4cc29	0.35312012
8	0xbea15c82	-0.3151589
9	0xbd8a2d96	-0.06746976
10	0xbe697e34	-0.22802049
11	0xbe274c7d	-0.16337772
12	0xbef0216a	-0.46900493
13	0xbeb24dfb	-0.3482512
14	0xbeb66e94	-0.3563124
15	0xbf0625e5	-0.5240157
16	0x3ec1b657	0.37834427
17	0x3e9998e4	0.2999946
18	0xbe33b6cb	-0.17550199
19	0xbeb8a073	-0.36059913
20	0xbe6f9e9b	-0.23400347
21	0xbec2194d	-0.37909928
22	0xbf008b0f	-0.50212187
23	0x3ebded8b	0.37095293
24	0xbd0bc5ce	-0.034124188
25	0x3d825fd1	0.06365932
26	0xbc61a638	-0.01377254
27	0xbf003d86	-0.5009388
28	0xbe5ba6bc	-0.21450323
29	0xbe8b7255	-0.27235666
30	0x3e460afa	0.19340125
31	0x3e4bd17f	0.19904135
32	0xbdae8f99	-0.08523483
33	0x3f288641	0.65829855
34	0xbe2cd5b3	-0.16878395
35	0xbeb86bf5	-0.36019865
36	0x3d2750b8	0.040848464
37	0xbf0debd7	-0.5543799
38	0xbdb05282	-0.08609487
39	0xbe567257	-0.20942055
40	0xbeb4c9ff	-0.3531036
41	0xbe0d0ae4	-0.13773686
42	0xbea3d1a4	-0.3199588
43	0xbbcdd049	-0.006280933
44	0x3c5fe7ef	0.013666137
45	0xbebbfc7c	-0.36716068
46	0x3d5c2ab4	0.053751662
47	0x3dd5186b	0.10405048
48	0x3d24b0d8	0.040207714
49	0xbe8e145d	-0.2774991
50	0xbe814555	-0.2524821
51	0xbe702f56	-0.23455557
52	0xbd446eef	-0.047957357
53	0xbecdd112	-0.4019857
54	0x3deec6c1	0.11659003
55	0x3dec064f	0.11524641
56	0xbebc3580	-0.36759567
57	0xbef8b502	-0.48575598
58	0xbe6e0068	-0.23242342
59	0xbe973b36	-0.29537362
60	0xbd5b2af7	-0.05350777
61	0x3d0692f0	0.032854974
62	0xbf1e4115	-0.6181806
63	0xbe0851c7	-0.13312446

fc2.weight f4 [64, 64]
0	0xbbc37c16	-0.00596572
1	0x3d02d7ce	0.03194409
2	0xbc9e221a	-0.01930337
3	0xbd90526e	-0.07046972
4	0xbdb464fc	-0.08808324
5	0xbe2d4005	-0.16918953
6	0xbe4e1009	-0.20123304
7	0xbdf2f012	-0.11862196
8	0x3cee2058	0.029068157
9	0xbdb19dc4	-0.086726695
10	0xbe55beb7	-0.20873533
11	0xbd534462	-0.051578887
12	0xbc6831af	-0.014172002
13	0x3ca90dac	0.020636402
14	0xbde135a2	-0.10996558
15	0x3ced6319	0.028977918
16	0xbdf0c510	-0.11756337
17	0xbefd813f	-0.4951267
18	0xbd477b7b	-0.048701745
19	0x3d878a59	0.066181846
20	0xbde5c118	-0.1121847
21	0xbd955324	-0.072912484
22	0xbdb62882	-0.08894445
23	0xbd3ab243	-0.04558016
24	0xbe4dba02	-0.20090488
25	0x3c96b1e9	0.018395381
26	0xbe0a15bd	-0.13484855
27	0x3d2d9530	0.042378604
28	0xbeefa6fd	-0.4680709
29	0xbd92bd89	-0.07165057
30	0xbdd573df	-0.10422491
31	0xbe1eca3c	-0.15506834
32	0xbe76dc04	-0.24107367
33	0xbcedc3e8	-0.02902408
34	0xbefac207	-0.48976156
35	0xbdaf44d3	-0.08558049
36	0xbe354bdd	-0.17704721
37	0xbd65f1d9	-0.056138847
38	0xbe50f6b8	-0.20406616
39	0xbd142c4d	-0.03617506
40	0xbcc7288c	-0.024311326
41	0x3ccb4f9c	0.024818234
42	0xbd6029b9	-0.05472729
43	0xbeadef7a	-0.3397177
44	0xbe5864c1	-0.21132185
45	0xbd965ef9	-0.07342333
46	0xbe98ceb4	-0.29845202
47	0x3dc3f7b2	0.095687285
48	0xbe6005fd	-0.21877284
49	0xbe07973d	-0.13241287
50	0xbe9b19aa	-0.30293018
51	0xbe53bbcd	-0.20677109
52	0xbe2bb5f3	-0.16768627
53	0xbc67109e	-0.014103083
54	0x3c6bcdec	0.014392357
55	0x3d0045ad	0.031316448
56	0x3cb159b8	0.021649227
57	0xbd9b66b6	-0.0758795
58	0xbdad4048	-0.08459526
59	0x3ce3a8ac	0.02779039
60	0xbde2980b	-0.11064156
61	0xbe239570	-0.15974975
62	0xbce4e9bf	-0.02794349
63	0x3d2dfc35	0.04247685
64	0xbe698a81	-0.22806741
65	0xbdc5ad29	-0.09652168
66	0xbea6e50b	-0.3259662
67	0xbdb1e157	-0.08685558
68	0xbed2006c	-0.41015947
69	0xbd594674	-0.053045705
70	0xbe9fd379	-0.31216028
71	0xbcad096e	-0.02112266
72	0xbd687a96	-0.056757532
73	0x3e3b6489	0.1830007
74	0xbe3eceb2	-0.18633536
75	0xbe2bf98f	-0.16794418
76	0x3d189025	0.037246842
77	0x3e7a3b95	0.24436791
78	0x3d297bd0	0.041377842
79	0x3e345821	0.17611744
80	0x3b805542	0.0039164135
81	0xbea25c9a	-0.31711274
82	0x3ea1d2e2	0.31606203
83	0x3b6bccd2	0.0035980237
84	0x3e184c9f	0.14872979
85	0x3d982340	0.074285984
86	0x3d5d9636	0.05409833
87	0x3d099d4d	0.03359728
88	0x3e07407f	0.13208197
89	0xbe8786fb	-0.2647017
90	0xbe912d81	-0.2835503
91	0xbdea0a6f	-0.11427771
92	0x3d998702	0.07496454
93	0x3d977dd3	0.07397046
94	0xbe04a323	-0.12952857
95	0x3d83d804	0.06437686
96	0x3d7136d6	0.058890186
97	0xbebff7e2	-0.37493807
98	0x3e40cda8	0.18828452
99	0x3d36ab7e	0.04459714
100	0x3e3360ee	0.17517444
101	0xbe2a57c1	-0.16635038
102	0x3e638584	0.22218901
103	0x3d3f563e	0.046713106
104	0xbbdebe1b	-0.0067975647
105	0x3da13081	0.078705795
106	0x3d20ccb9	0.03925774
107	0x3de01601	0.10941697
108	0x3da73bca	0.08165701
109	0x3e679154	0.22614032
110	0xbe2ad224	-0.16681725
111	0xbee0883e	-0.43853945
112	0xbebbd69a	-0.36687165
113	0xbe59f0ac	-0.21283215
114	0xbe890ed1	-0.26769117
115	0xbe87eefe	-0.26549524
116	0x3d141a04	0.036157623
117	0xbd979c19	-0.0740282
118	0xbee4985c	-0.4464749
119	0xbe97a5b6	-0.29618615
120	0xbe5bd615	-0.21468385
121	0xbd3d1d47	-0.0461705
122	0x3d6ac008	0.05731204
123	0xbe060811	-0.13089015
124	0x3e0bbcc4	0.13646227
125	0xbd6fb80f	-0.05852514
126	0x3ea775dd	0.3270711
127	0xbe68c61e	-0.22731826
128	0x3dfe7680	0.12424946
129	0xbca68149	-0.02032532
130	0xbe1bba97	-0.15207897
131	0x3caba125	0.020950863
132	0xbd9b57d2	-0.0758511
133	0x3d72cc80	0.059277058
134	0xbdcd44ac	-0.10022864
135	0xbdf4add5	-0.11947218
136	0xbe52285c	-0.20523208
137	0xbdda7a4e	-0.10667859
138	0x3cdce8a0	0.026966393
139	0xbdc9005c	-0.09814522
140	0x3d233510	0.039845526
141	0x3c0e782e	0.008695645
142	0xbd552b95	-0.052043516
143	0xbdab490c	-0.08363542
144	0xbe388365	-0.18018873
145	0xbd1df5e4	-0.038564578
146	0xbabcdc44	-0.0014408906
147	0x3d254b9e	0.040355317
148	0x3c8b9af1	0.017041655
149	0xbc669fb0	-0.014076158
150	0xbd1dcc00	-0.038524628
151	0xbe53573c	-0.20638746
152	0xbe41f5df	-0.18941449
153	0xbcd48d4c	-0.025946282
154	0xbd910096	-0.0708019
155	0xbcb9553f	-0.022623656
156	0xbdb4b7f8	-0.08824152
157	0xbd7d9964	-0.061913863
158	0xbe243194	-0.16034538
159	0x3be9eca4	0.0071388055
160	0xbdc43bea	-0.0958174
161	0x3dc50494	0.09620014
162	0x3d9e6e68	0.07735902
163	0x3d8da7dc	0.06916782
164	0xbd9c0b78	-0.07619375
165	0xbdf5e3a4	-0.1200631
166	0xbdad832b	-0.08472284
167	0xbd88acbf	-0.06673574
168	0x3d7dcda4	0.061963692
169	0xbe2e6aed	-0.17032976
170	0x3dd6daea	0.10490973
171	0xbd8fb013	-0.07016005
172	0xbdd6839a	-0.1047432
173	0xbd8a82c4	-0.06763223
174	0x3ced7a2b	0.028988918
175	0x3cf7d3b5	0.030252317
176	0xbe4c07f9	-0.19924916
177	0x3baad532	0.005213403
178	0xbc90aa41	-0.017659308
179	0x3d9787f8	0.07398981
180	0x3d529591	0.05141217
181	0xbdfb84ad	-0.12281165
182	0xbd311e6b	-0.0432419
183	0xbd04312a	-0.03227345
184	0xbd174ae8	-0.03693667
185	0xbd26b3cc	-0.04069881
186	0xbdbdceb0	-0.09267938
187	0xbba65421	-0.005075947
188	0xbdb5eb37	-0.08882754
189	0xbdd18be1	-0.10231758
190	0x3d00e540	0.03146863
191	0xbd1f52a4	-0.03889717
192	0xbdf7059d	-0.120616175
193	0xbd42889e	-0.04749357
194	0x3c4f85bb	0.012666161
195	0xbd32783e	-0.043571703
196	0xbcb0e308	-0.021592632
197	0xbcf6f9b8	-0.030148372
198	0xbc830a1a	-0.015996028
199	0xbe07fc2f	-0.13279794
200	0xbe0865d2	-0.13320091
201	0xbdc49dfc	-0.09600446
202	0x3d62b184	0.055345073
203	0xbdbf1281	-0.09329701
204	0xb9b2f000	-0.0003412962
205	0xbdc5a57c	-0.09650704
206	0x3dff8ff0	0.12478626
207	0x3dfa070e	0.12208377
208	0xbdf878a5	-0.12132386
209	0xbdcf8810	-0.10133374
210	0xbdf1bcfa	-0.118036225
211	0xbcd37659	-0.025813268
212	0xbd4dfac8	-0.05028799
213	0xbe0bd7e2	-0.13656572
214	0xbd37a3e0	-0.044834018
215	0xbc4439e1	-0.01197669
216	0xbd85c1f4	-0.06531134
217	0xbd007dec	-0.03137009
218	0xbdb4987d	-0.08818147
219	0xbd9f5636	-0.07780115
220	0xbd27c489	-0.040958915
221	0x3d318a18	0.043344587
222	0xbde78087	-0.113038115
223	0xbd5cd70e	-0.05391603
224	0xbdd3d079	-0.103424974
225	0x3d81335e	0.06308626
226	0xbdf2e226	-0.11859541
227	0xbdf56ad2	-0.11983265
228	0x3d83a9fb	0.064289056
229	0xbda1f7f8	-0.079086244
230	0xbbb52835	-0.0055284747
231	0xbd2d99c2	-0.042382963
232	0xbdaf0e87	-0.08547693
233	0xbd54e371	-0.051974718
234	0x3ca9918f	0.02069929
235	0xbc96c5e3	-0.018404907
236	0xbe38a4b8	-0.18031585
237	0xbd9721d8	-0.07379502
238	0xbdd16bac	-0.10225615
239	0x3b986565	0.004650759
240	0xbe0fc393	-0.1403945
241	0x3dccf020	0.10006738
242	0xbdb2e6ff	-0.08735465
243	0xbcb7df18	-0.022445247
244	0x3d1e7427	0.03868499
245	0x3d2ea86b	0.042641085
246	0x3dd91e6a	0.10601504
247	0x3c520ad8	0.012819968
248	0xbdc7d548	-0.09757477
249	0xbda9d954	-0.08293405
250	0xbd8d3b10	-0.06896031
251	0x3dd3e00e	0.103454694
252	0xbd705499	-0.05867443
253	0xbe33837d	-0.17530628
254	0x3d51e224	0.051241055
255	0x3db0b02e	0.086273536

fc2.bias f4 [64]
0	0xbe441d13	-0.19151716
1	0xbd9d55b3	-0.076823615
2	0xbdee8732	-0.1164688
3	0xbe30d8c8	-0.17270195
4	0xbe200304	-0.1562615
5	0xbe0b3d0c	-0.13597506
6	0xbe3bfbff	-0.18357848
7	0xbcb647cb	-0.02225103
8	0xbe87e92f	-0.26545092
9	0xbddd247d	-0.10797975
10	0x37c8e13d	2.3946743e-05
11	0xbda0752b	-0.07834848
12	0x3b5ec020	0.0033989027
13	0xbdeeb9ed	-0.11656556
14	0xbd83558c	-0.06412801
15	0xbdfa6662	-0.12226559
16	0xbe0b27cf	-0.13589405
17	0xbd70ddfd	-0.058805455
18	0xbdf885ab	-0.1213487
19	0xbdf6cd3e	-0.120508656
20	0xbde65ea6	-0.112485215
21	0xbda1d247	-0.07901435
22	0xbeac25fa	-0.33622724
23	0xbdb04260	-0.0860641
24	0xbc922a91	-0.017842563
25	0xbd0a8306	-0.03381636
26	0xbe54d0ef	-0.20782827
27	0xbea2d482	-0.31802756
28	0xbdec8551	-0.115488656
29	0xbe1a2578	-0.15053356
30	0xbe317c5a	-0.17332593
31	0xbd8446a0	-0.06458783
32	0xbd1e6ead	-0.038679767
33	0xbe06e8c0	-0.13174725
34	0xbdce4d31	-0.10073317
35	0x3e88b673	0.26701698
36	0xbdcb2b37	-0.09920352
37	0xbd166678	-0.036718816
38	0xbe51a006	-0.204712
39	0x3ccdfc98	0.02514486
40	0xbdff30e7	-0.12460499
41	0xbd1dddaa	-0.038541473
42	0xbda20d7a	-0.07912727
43	0xbe527cd6	-0.20555434
44	0xbde98479	-0.1140222
45	0xbda59c00	-0.08086395
46	0xbd125e51	-0.03573448
47	0xbe18dc32	-0.14927748
48	0x3d2641ce	0.0405901
49	0x3d50c765	0.050971407
50	0xbd8eb663	-0.06968381
51	0xbe3cafa0	-0.1842637
52	0xbd9015e5	-0.07035426
53	0xbe160a5e	-0.14652392
54	0xbd748cfb	-0.059704762
55	0xbe8ea419	-0.27859572
56	0x3caf6a29	0.021412926
57	0xbe0423c6	-0.12904271
58	0xbe1ebcbb	-0.15501682
59	0xbae27f1f	-0.0017280317
60	0xbd181080	-0.03712511
61	0xbdce19c6	-0.1006351
62	0xbe636543	-0.22206597
63	0xbde09021	-0.109649904

fc3.weight f4 [4, 64]
0	0xbe043180	-0.12909508
1	0x3e6b965a	0.23006573
2	0xbdbdd977	-0.09269994
3	0x3bdb562f	0.0066936235
4	0xbbebffb6	-0.007202114
5	0xbd95464f	-0.07288801
6	0x3ea142fa	0.31496412
7	0xbe8894b7	-0.2667596
8	0xbd1bc930	-0.038033664
9	0xbcacb212	-0.021081004
10	0x3e20d405	0.15705879
11	0xbd8e0376	-0.06934254
12	0xbc32f7ef	-0.01092337
13	0x3e31a943	0.17349724
14	0x3e543852	0.2072461
15	0xbe0f8e38	-0.14019096
16	0x3dd91cc6	0.10601191
17	0x3d53f880	0.05175066
18	0x3da21b16	0.079153225
19	0x3e273971	0.16330506
20	0xbd556ada	-0.052103855
21	0x3c65a3a4	0.014016066
22	0x3c5106f6	0.012758007
23	0x3e2ff555	0.1718343
24	0x3e65d16e	0.22443172
25	0xbd3b0aff	-0.045664784
26	0xbcf684f0	-0.030092686
27	0x3d2295c4	0.03969361
28	0x3d45bca6	0.048275612
29	0xbcb101a9	-0.021607237
30	0x3e9c05ef	0.30473277
31	0x3d7c99ac	0.06166999
32	0xb9b0c026	-0.00033712498
33	0x39e94f39	0.0004450025
34	0xbdae841c	-0.085212916
35	0x3f152c70	0.5827093
36	0xbe5b9905	-0.21445091
37	0x3cb62131	0.022232624
38	0xbcaf2e06	-0.02138425
39	0x3d069aa9	0.03286234
40	0xbdbe5892	-0.09294237
41	0x3e86634f	0.2624764
42	0x3db64700	0.08900261
43	0x3e01f897	0.12692486
44	0xbe1102a5	-0.14161165
45	0x3d4330ff	0.04765415
46	0xbdb1749e	-0.08664821
47	0xbe3afd18	-0.1826061
48	0xbdbe8a03	-0.093036674
49	0x3e18c113	0.14917402
50	0xbda0f243	-0.07858708
51	0x3c447019	0.011989617
52	0x3e38fc64	0.1806503
53	0xbdb85e94	-0.09002414
54	0xbe12859b	-0.14308779
55	0x3d0888a9	0.033333454
56	0x3d0d856e	0.034551077
57	0x3c7efbda	0.015562976
58	0xbdcc02e1	-0.099614866
59	0x3c84694b	0.016163489
60	0x3e8bb91a	0.2728966
61	0x3d7bc974	0.061471418
62	0x3cafd71a	0.021464873
63	0xbddc9b3f	-0.10771798
64	0x3e0ab717	0.13546406
65	0xbe1dd237	-0.15412222
66	0x3c939308	0.018014446
67	0xbd63f1b5	-0.05565043
68	0xbe4d5868	-0.20053256
69	0x3d30dcf2	0.04317946
70	0xbdd19209	-0.10232932
71	0xbc91bb03	-0.01778937
72	0xbc81e984	-0.01585842
73	0x3da650eb	0.08120903
74	0xbda3e7bd	-0.08003185
75	0x3d0b6b04	0.034037605
76	0xbe051046	-0.12994489
77	0xb88c80e8	-6.699731e-05
78	0x3bdd804b	0.0067596785
79	0x3d086e67	0.033308413
80	0xbe49ea2a	-0.19718233
81	0xbdcfe471	-0.101509936
82	0x3dc9c865	0.09852675
83	0x3d7f9dd7	0.062406387
84	0x3d26fdea	0.040769495
85	0x3e1ae1b9	0.15125169
86	0xbe4bf816	-0.19918856
87	0xbdf448d1	-0.11927951
88	0xbd66bc8c	-0.056332156
89	0x3c2b971b	0.010473038
90	0x3df9a394	0.12189403
91	0xbe2e4ccb	-0.17021482
92	0xbda04841	-0.07826281
93	0xbdd444f6	-0.10364716
94	0xbc59d110	-0.013294473
95	0x3bf507df	0.007477745
96	0x3c9d098d	0.019169593
97	0xbe2429a2	-0.16031507
98	0x3cfa0da4	0.030524082
99	0x3e82314d	0.2542824
100	0x3debd4de	0.115152106
101	0x3b8d634b	0.004314815
102	0x3d800de0	0.062526464
103	0x3e30ce2f	0.17266153
104	0x3d6ad512	0.057332106
105	0xbd263caa	-0.040585198
106	0xbd0d58df	-0.034508582
107	0xbdf7d524	-0.121012
108	0x3d40de4e	0.047087006
109	0xbe07d0d1	-0.13263251
110	0x3dd492ab	0.10379537
111	0xbb9419d1	-0.004519679
112	0x3cd4e354	0.025987305
113	0x3cb098ea	0.02155729
114	0xbda1a5a1	-0.07892919
115	0xbe92d5bc	-0.2867869
116	0xbd2c3080	-0.04203844
117	0x3d0767ed	0.033058096
118	0x3ca3527e	0.019936796
119	0xbd27498e	-0.04084163
120	0x3e133455	0.14375432
121	0x3dc5c565	0.09656791
122	0x3bcad4eb	0.0061899326
123	0x3dcb3bfe	0.09923552
124	0x3ee52ea9	0.4476216
125	0x3dcece58	0.10097951
126	0xbd331988	-0.04372552
127	0x3d26e493	0.04074533
128	0xbd05189a	-0.032494165
129	0x3ccaa780	0.024738073
130	0x3c63e8ad	0.013910455
131	0x3cf49867	0.029857827
132	0x3e0ef355	0.13960011
133	0xbcbb8cd4	-0.0228943
134	0x3e32c28f	0.1745703
135	0x3e7369c9	0.23770823
136	0x3db37d76	0.08764164
137	0x3d16d930	0.03682822
138	0xbc38c4ae	-0.011277361
139	0x3d78af0f	0.060713824
140	0xbd4c9a23	-0.049951684
141	0x3d238c32	0.039928623
142	0x3dc9d7e6	0.098556325
143	0x3d41fdfa	0.04736135
144	0x3cc6f617	0.024287267
145	0x3d3306f2	0.043707795
146	0x3d68a719	0.05679998
147	0x3ded7dcc	0.115962595
148	0x3d829473	0.06375971
149	0x3d84501e	0.06460594
150	0x3e485521	0.19563724
151	0xbca14bdf	-0.019689498
152	0x3e0c21fc	0.13684839
153	0x3e1f2048	0.15539658
154	0x3d3f3d2b	0.046689194
155	0x3e7555e5	0.23958547
156	0x3d0690b3	0.03285284
157	0xbcf469e5	-0.02983565
158	0x3e449150	0.19196057
159	0xbd8bc47b	-0.06824585
160	0xbd3b2c64	-0.04569663
161	0x3d7a9bfc	0.061183915
162	0xbd335c7f	-0.043789383
163	0xbdc4c090	-0.09607041
164	0x3c9b6ba8	0.018972233
165	0x3d34561e	0.04402744
166	0x3d1826ab	0.03714625
167	0x3df7306b	0.12069782
168	0x3d2350dd	0.03987204
169	0xbd72e861	-0.059303645
170	0x3d51d184	0.0512252
171	0x3cfe7c18	0.031065032
172	0xbe22ee62	-0.15911248
173	0x3e04d4f7	0.12971865
174	0x39f17ffc	0.00046062458
175	0x3dad3c19	0.08458728
176	0xbd866775	-0.065627016
177	0x3c9330f6	0.017967682
178	0x3d12a218	0.035799116
179	0x3d9949e5	0.074847974
180	0xbd330e1b	-0.043714624
181	0xbdcd14e2	-0.10013749
182	0xbcb083be	-0.021547195
183	0x3bf2b724	0.007407086
184	0x3dfed5f8	0.12443155
185	0x3a34c00d	0.0006895073
186	0xbde84569	-0.11341364
187	0x3abc9b23	0.0014389496
188	0xbe99e950	-0.30060816
189	0xbdf8aa76	-0.12141888
190	0x3cb899d9	0.022534298
191	0x3e2040c6	0.15649709
192	0xbc1d56f6	-0.009603253
193	0xbb832135	-0.0040017613
194	0x3db44c69	0.088036366
195	0xbcc9466a	-0.024569709
196	0x3e6d9b4d	0.23203774
197	0xbddf662e	-0.10908161
198	0xbe2c3aea	-0.16819349
199	0xbb04d412	-0.0020268005
200	0xbe552531	-0.20814969
201	0xbe003c83	-0.12523083
202	0xbd85b702	-0.065290466
203	0x3d0e219d	0.034700025
204	0xbd1b8e88	-0.037977725
205	0x3db2c9f6	0.08729927
206	0x3cf6d5e8	0.030131295
207	0xbd014bcf	-0.031566437
208	0x3c64e15c	0.0139697455
209	0xbda5aed8	-0.080899894
210	0xbcda0d50	-0.026617676
211	0xbdb06994	-0.086138874
212	0xbde371e7	-0.111057095
213	0xbe6f5ac3	-0.23374467
214	0x3e843bf6	0.25826997
215	0xbc77cfce	-0.015125228
216	0x3e3be64a	0.18349567
217	0xbe470b4a	-0.194379
218	0x3dcd1c45	0.100151576
219	0x3e7e4106	0.24829492
220	0xbcca7443	-0.024713641
221	0x3e146cdd	0.14494653
222	0xbe0421f2	-0.12903574
223	0xbcfe2d86	-0.031027567
224	0xbd9e1bcb	-0.07720145
225	0x3df3184f	0.11869871
226	0xbd95f68c	-0.07322416
227	0xbe5d923a	-0.21637812
228	0xbd277977	-0.040887322
229	0xbe045d8d	-0.12926312
230	0xbdc88963	-0.097918294
231	0x3d5c44eb	0.053776663
232	0xbe16edee	-0.147392
233	0x3e41b473	0.18916492
234	0x3cd90e78	0.026496157
235	0xbe3c9e41	-0.18419744
236	0x3c35a48e	0.011086596
237	0xbe0d9b7f	-0.13828848
238	0x3de3c037	0.111206464
239	0xbd346ebc	-0.044050917
240	0x3ddd08d3	0.10792699
241	0xbc712321	-0.014717848
242	0xbc9133d7	-0.017724914
243	0xbe6e4724	-0.23269325
244	0xbd272312	-0.04080493
245	0xbd832d03	-0.0640507
246	0xbe2a684b	-0.16641347
247	0x3dbbc3ab	0.0916818
248	0xbd6092c5	-0.05482747
249	0x3d1c97fa	0.038230874
250	0xbdc56be1	-0.09639717
251	0x3e8e6456	0.27810925
252	0xbd3d60d0	-0.046234906
253	0x3d2084a4	0.039188996
254	0x3d8fdeae	0.07024895
255	0x3c993d49	0.01870598

fc3.bias f4 [4]
0	0xbffaeda8	-1.9603777
1	0x4060294f	3.5025213
2	0xbfa45ccd	-1.284082
3	0xbf3e3d2d	-0.74312097

in_fn.weight f4 [32]
0	0xbba45baf	-0.0050158123
1	0xbb61c80a	-0.0034451508
2	0xbb926d1c	-0.0044685733
3	0x3c05fd52	0.008178072
4	0x3e9c1665	0.30485836
5	0x3ef82407	0.48464987
6	0x3f800000	1.0
7	0x3f800000	1.0
8	0xbc484f4d	-0.012225938
9	0xbb3e50f0	-0.0029039942
10	0xbc1f531d	-0.009724406
11	0x3b146a74	0.0022646459
12	0x3fc5da1e	1.5457189
13	0x3fbc711d	1.472202
14	0x3f800000	1.0
15	0x3f800000	1.0
16	0x3e51aa55	0.20475133
17	0x3f05a3e4	0.522032
18	0x3f800000	1.0
19	0x3f800000	1.0
20	0x3f940cbf	1.156639
21	0x3f874392	1.0567496
22	0x3f482956	0.78188074
23	0x3f586ba3	0.8453924
24	0x39007f62	0.00012254485
25	0xb89233ae	-6.9714486e-05
26	0x3af3989e	0.0018584912
27	0xb751d542	-1.2507024e-05
28	0x3d1d446e	0.038395338
29	0x3eebd069	0.46057442
30	0x3d8d5471	0.069008715
31	0x3f0b0ea6	0.54319227

in_fn.bias f4 [32]
0	0xbde9c821	-0.11415125
1	0xbc9f52d8	-0.019448683
2	0xbe5e7826	-0.2172552
3	0xbca1a6c1	-0.019732835
4	0xbe719d46	-0.23595151
5	0x3f0bb643	0.54574984
6	0x3ee0cd67	0.4390671
7	0xbe91de18	-0.28489757
8	0x3d105ad4	0.03524287
9	0xbed68f2f	-0.41906115
10	0x3e421f8e	0.1895735
11	0xbe891cb9	-0.26779726
12	0xbc6135ad	-0.013745707
13	0xbda05ed0	-0.07830584
14	0xbe83627a	-0.2566107
15	0xb8ffe86c	-0.000122026395
16	0xbebafd60	-0.36521435
17	0x3f2689e0	0.6505413
18	0x3e297cc6	0.16551504
19	0x3d036162	0.032075293
20	0xbe4377bd	-0.19088645
21	0x3e581560	0.21101904
22	0xbd51a278	-0.051180333
23	0xbc9dd06d	-0.019264424
24	0xbecc5c7d	-0.39914313
25	0xbb877116	-0.004133354
26	0x3e00cdbd	0.12578483
27	0x3c9e0139	0.019287692
28	0x3e2c387b	0.1681842
29	0xbd8fac93	-0.07015338
30	0x3ddd44ae	0.10804115
31	0xbdf87e3d	-0.12133453

in_fn.running_mean f4 [32]
0	0x3e8b9eb4	0.27269518
1	0x3e538891	0.20657565
2	0x3e894d48	0.26816773
3	0x3e58d0c1	0.21173383
4	0x3f05c81a	0.52258456
5	0x3ef46fc5	0.47741523
6	0x00000000	0.0
7	0x00000000	0.0
8	0x3e8b9eb4	0.27269518
9	0x3e538891	0.20657565
10	0x3e894d48	0.26816773
11	0x3e58d0c1	0.21173383
12	0x3efee645	0.49785057
13	0x3f008cda	0.5021492
14	0x00000000	0.0
15	0x00000000	0.0
16	0x3f05c81a	0.52258456
17	0x3ef46fc5	0.47741523
18	0x00000000	0.0
19	0x00000000	0.0
20	0x3d6508bb	0.05591653
21	0x3f6617c5	0.8988002
22	0x3ca1ae65	0.019736478
23	0x3cd14714	0.025546588
24	0x3ef722ec	0.4826883
25	0x3ef6ce50	0.4820428
26	0x3c9a1307	0.018807901
27	0x3c86d8ac	0.01646074
28	0x3ecc4535	0.3989655
29	0x3dd3ecff	0.10347938
30	0x3eca42ab	0.3950399
31	0x3dd1f35b	0.102514945

in_fn.running_var f4 [32]
0	0x3e4b2617	0.19838749
1	0x3e27d61a	0.16390267
2	0x3e490193	0.19629507
3	0x3e2ae72c	0.16689748
4	0x3e7f6422	0.24940541
5	0x3e7f6422	0.24940541
6	0x00000004	6e-45
7	0x00000004	6e-45
8	0x3e4b2617	0.19838749
9	0x3e27d61a	0.16390267
10	0x3e490193	0.19629507
11	0x3e2ae72c	0.16689748
12	0x3e800e87	0.25011083
13	0x3e800e87	0.25011083
14	0x00000004	6e-45
15	0x00000004	6e-45
16	0x3e7f6422	0.24940541
17	0x3e7f6422	0.24940541
18	0x00000004	6e-45
19	0x00000004	6e-45
20	0x3d4c57f6	0.049888574
21	0x3dad1008	0.08450323
22	0x3c9d4651	0.019198569
23	0x3cca309e	0.024681386
24	0x3e7fdbb0	0.24986148
25	0x3e7e273c	0.24819654
26	0x3c93ef62	0.018058483
27	0x3c823eb3	0.015899038
28	0x3e697f39	0.22802438
29	0x3da5a6be	0.08088444
30	0x3e68d2ec	0.2273671
31	0x3da49f9a	0.08038254

fc1.weight f4 [64, 32]
0	0x3da76934	0.08174363
1	0x3ced1f64	0.028945632
2	0x3d86b9d1	0.065784104
3	0x3d8327c2	0.064040676
4	0x3db7bafa	0.0897121
5	0x3d7524b5	0.05984946
6	0x3dcce87e	0.10005282
7	0xbd3b0085	-0.045654792
8	0xbdb55219	-0.088535495
9	0xbe209337	-0.15681158
10	0x3c0d5333	0.008625793
11	0x3caecb6d	0.021337235
12	0x3f161a30	0.5863371
13	0xbef71418	-0.48257518
14	0x3dd16fc2	0.10226394
15	0xbd308486	-0.043095134
16	0xbe0d250e	-0.13783666
17	0x3de56340	0.11200571
18	0x3b8f0d53	0.004365602
19	0xbe54497e	-0.2073116
20	0xbf28c99f	-0.6593265
21	0x3dde6e2c	0.10860857
22	0x3e2931a2	0.1652284
23	0xbdb22df8	-0.08700174
24	0x3d751e20	0.059843183
25	0x3d55e690	0.052221835
26	0x3d8aad52	0.067713395
27	0x3bf2fa56	0.0074150963
28	0x3d801caf	0.06255471
29	0xbe510bf7	-0.2041472
30	0x3d8c10ca	0.0683914
31	0xbba3c4ad	-0.004997811
32	0x3e0a8c89	0.13530172
33	0xbdc1701b	-0.094452105
34	0xbd05bc08	-0.032650024
35	0xbca82e1b	-0.020529797
36	0x3efcfa2e	0.49409622
37	0xbf2ef14e	-0.6833695
38	0xbd9bf9ca	-0.07616003
39	0x3e8357a0	0.2565279
40	0xbdea9c7f	-0.114556305
41	0x3de41feb	0.111389
42	0xbcad66db	-0.02116721
43	0x3d49c34e	0.049258523
44	0xbe8d04c0	-0.27542686
45	0x3ed569b7	0.41682217
46	0x3e4dc1fe	0.20093533
47	0xbd17c512	-0.037053175
48	0x3ea8ed03	0.32993326
49	0xbf019619	-0.50619656
50	0xbd81972f	-0.06327664
51	0xbd4720eb	-0.048615377
52	0xbe4de44f	-0.20106624
53	0xbec4c990	-0.3843503
54	0xbd030e27	-0.03199592
55	0x3e04034e	0.12891886
56	0x3dea13bd	0.11429546
57	0xbd8144f0	-0.06311977
58	0xbcc67786	-0.024226915
59	0x3c392a3a	0.0113015715
60	0xbe022011	-0.12707545
61	0xbca9140e	-0.020639446
62	0x3d5d7c9e	0.054073922
63	0x3e21267c	0.15737337
64	0x3cc545b0	0.024081081
65	0xbdd2c4d0	-0.10291445
66	0xbd5a3cdb	-0.053280693
67	0x3df9673b	0.12177893
68	0xbdb0c30a	-0.08630951
69	0xbd8eb1c9	-0.069675036
70	0xbea6bfcc	-0.32568204
71	0x3eb9b70e	0.36272472
72	0x3c9b6a13	0.018971479
73	0x3cc55ce1	0.02409214
74	0xbe6a54b3	-0.22883873
75	0x3e5cc6c6	0.21560201
76	0x3e698231	0.2280357
77	0xbc80fb5a	-0.015744854
78	0x3e79c932	0.24393156
79	0xbd9c08be	-0.07618855
80	0x3cd8ddeb	0.026473006
81	0xbca8bfa8	-0.020599201
82	0xbf02ebed	-0.51141244
83	0xbea3831c	-0.31935966
84	0xbe64e54e	-0.22353098
85	0x3dac1132	0.08401717
86	0x3d3c712c	0.046006367
87	0x3d04431a	0.032290556
88	0x3d0a4268	0.033754736
89	0xbda6343a	-0.0811543
90	0xbe66245e	-0.2247481
91	0xbc4c66c9	-0.012475678
92	0x3e888401	0.2666321
93	0xbeedc898	-0.46442103
94	0x3e8590a9	0.2608693
95	0x3dd2e2a2	0.10297133
96	0xbc4d8089	-0.012542852
97	0x3e006566	0.1253868
98	0x3d817afb	0.06322285
99	0x3e0e2408	0.13880932
100	0x3c818e94	0.015815057
101	0xbdb5149b	-0.08841821
102	0xbf0bed52	-0.54659
103	0x3ed310cb	0.4122375
104	0xbe5cd1f7	-0.2156447
105	0xbdb68747	-0.08912521
106	0xbe720101	-0.23633195
107	0x3bf609c7	0.00750849
108	0x3e0603d8	0.13087404
109	0x3e0e0a8c	0.13871211
110	0x3e65fb90	0.22459245
111	0xbd21d98a	-0.039514102
112	0xbdac78f6	-0.08421509
113	0x3e14e8c3	0.14541917
114	0xbee53656	-0.44768018
115	0xbec77581	-0.38956836
116	0xbe40b7ad	-0.18820067
117	0x3e63cd61	0.22246315
118	0xbe22bd54	-0.15892535
119	0xbe27bf3b	-0.16381542
120	0x3c91a0cf	0.017776875
121	0x3cab747e	0.020929571
122	0xbd4e27cf	-0.050330933
123	0xbcd80a46	-0.026372086
124	0xbdb9167a	-0.0903749
125	0xbe691bd7	-0.22764526
126	0x3e37408e	0.1789572
127	0x3e3dc85e	0.18533465
128	0xbe3b05c1	-0.18263914
129	0xbcb0c36d	-0.021577561
130	0x3d895140	0.0670495
131	0x3ddc7846	0.10765128
132	0xbab330a7	-0.0013671116
133	0xbdf1a294	-0.117985874
134	0xbf08960e	-0.53353965
135	0x3e7dbdb4	0.24779397
136	0xbe581b52	-0.21104172
137	0xbda5fae2	-0.08104493
138	0xbe051ecb	-0.13000028
139	0xbd2d6577	-0.042333093
140	0xbe46a76d	-0.19399805
141	0xbd9ef206	-0.07761006
142	0x3e91e395	0.28493944
143	0x3d93d9ce	0.07219277
144	0x3d817b92	0.06322397
145	0xbeb9318d	-0.36170617
146	0xbe99080e	-0.29888958
147	0xbdf5249d	-0.11969874
148	0x3e238364	0.1596809
149	0xbd9d7a95	-0.07689396
150	0xbca31a30	-0.019909948
151	0xbda53b30	-0.0806793
152	0x3e259ad1	0.16172339
153	0x3d42d0f6	0.047562562
154	0x3d261443	0.040546667
155	0xbdbd42b5	-0.09241239
156	0x3ca1a110	0.01973012
157	0xbd8e0d6a	-0.06936152
158	0xbea309ac	-0.31843317
159	0xbdcc23d8	-0.09967774
160	0x3cbcc8eb	0.023045024
161	0xbe24eeb0	-0.16106677
162	0x3e102120	0.14075136
163	0x3e0c950d	0.13728733
164	0xbe43238b	-0.19056527
165	0xbd70a67b	-0.05875252
166	0xbecebec7	-0.40379927
167	0x3f1434da	0.57893145
168	0xbe100c76	-0.14067253
169	0x3cb0ef98	0.021598622
170	0x3d23e0c4	0.040009275
171	0x3e107892	0.14108494
172	0xbe845334	-0.2584473
173	0x3dada1ce	0.084781274
174	0x3eba9f50	0.3644967
175	0x3ca2dcd9	0.019880699
176	0xbd57f1ec	-0.05272095
177	0x3e0f5b7e	0.13999745
178	0xbf0b5d03	-0.544388
179	0xbeaec201	-0.34132388
180	0xbdf56d63	-0.119837545
181	0xbe80e0e3	-0.25171575
182	0x3eaf65cd	0.34257355
183	0xbe87e166	-0.26539153
184	0x3e1eb54b	0.15498845
185	0x3db5b240	0.08871889
186	0xbe844014	-0.25830138
187	0xbe660fa8	-0.2246691
188	0xbc83327e	-0.016015287
189	0x3e68d1ac	0.22736233
190	0xbdd4db31	-0.1039337
191	0xbd9b328c	-0.075780004
192	0x3dcd1658	0.10014027
193	0x3cd0214c	0.025406502
194	0x3e79080d	0.24319477
195	0xbd14b9ee	-0.03631013
196	0x3e7f180c	0.24911517
197	0xbee0dd8e	-0.43919033
198	0xbe40267b	-0.18764679
199	0x3e28d2c6	0.16486654
200	0xbd826edb	-0.063688
201	0x3e0d6931	0.13809659
202	0xbe2c47dd	-0.16824289
203	0x3e3637c4	0.1779471
204	0xbd8f6207	-0.07001119
205	0x3eb4a7ca	0.35284263
206	0xbd44e50d	-0.048070002
207	0x3db249da	0.08705492
208	0x3ea3905c	0.31946075
209	0xbf07c804	-0.53039575
210	0xbd844cbd	-0.06459949
211	0xbdcce933	-0.10005417
212	0x3da9bd22	0.08288027
213	0xbeae0756	-0.33989972
214	0x3e2b2ab8	0.16715515
215	0x3d1cd867	0.038292315
216	0x3e22d232	0.15900496
217	0xbd1641e0	-0.036683917
218	0x3d14335b	0.03618179
219	0xbb6aa0e5	-0.0035801467
220	0xbe0fa6db	-0.14028494
221	0xbc1b8734	-0.009492684
222	0xbe959687	-0.29216406
223	0xbe76d93e	-0.24106309
224	0x3e2846a5	0.16433199
225	0xbe0cba3a	-0.13742915
226	0x3e09d37f	0.13459586
227	0x3ca673fb	0.020318976
228	0x3d5d2950	0.053994477
229	0xbee59a6e	-0.44844383
230	0xbf1de4dd	-0.6167734
231	0x3ec2ae13	0.38023433
232	0xbdeb7b7f	-0.114981644
233	0x3d06bdf6	0.032896005
234	0x3d169950	0.036767304
235	0x3eaa8b38	0.3330934
236	0xbd125ba6	-0.035731934
237	0xbc0d08d0	-0.008608058
238	0x3eeeb4d1	0.46622327
239	0xbe0c4bcc	-0.13700789
240	0x3dd2e9d7	0.10298508
241	0xbefb972c	-0.49138772
242	0xbed90606	-0.42387408
243	0xbeb12183	-0.3459588
244	0x3d91bc53	0.07115998
245	0xbd584c7b	-0.052807312
246	0xbc6785d9	-0.014131033
247	0x3bde18eb	0.006777873
248	0xbce8a645	-0.028399596
249	0x3bbdc4c2	0.0057912776
250	0xbd5aaa1c	-0.053384885
251	0xbdd11172	-0.102084056
252	0xbd9e9456	-0.077431366
253	0x3daa73b1	0.08322848
254	0xbe160745	-0.1465121
255	0xbeac9c82	-0.33713156

fc1.bias f4 [64]
0	0xbe05d1b7	-0.13068281
1	0xbba82e73	-0.0051324903
2	0xbe35152a	-0.17683855
3	0xbe9f398f	-0.310986
4	0xbe740eb7	-0.23833738
5	0xbecbf18b	-0.3983272
6	0xbd92a9ef	-0.071613185
7	0xbeaae942	-0.33381087
8	0xbe29fc11	-0.16600062
9	0xbe920d82	-0.2852593
10	0x3de32cf5	0.11092559
11	0xbe175214	-0.14777404
12	0xbe9e88e6	-0.3096382
13	0xbe333dd5	-0.17504056
14	0x3e040b78	0.12895
15	0x3e376212	0.17908505
16	0x3cb5dfe0	0.022201478
17	0xbf11be98	-0.5693145
18	0xbd17e3e1	-0.037082557
19	0xbeabf86c	-0.33587968
20	0xbee86ea8	-0.45396924
21	0x3f1c6a79	0.61099964
22	0xbee1d084	-0.44104397
23	0x3e7c5e35	0.24645312
24	0xbe46531a	-0.19367638
25	0x3e7abcc5	0.24486072
26	0xbeda440c	-0.4263004
27	0xbd0797ea	-0.03310386
28	0xbea029a9	-0.31281784
29	0x3d3e378c	0.046439692
30	0xbe27d90d	-0.16391392
31	0xbe972c42	-0.29525954
32	0xbef430ae	-0.4769339
33	0xbec6e849	-0.38849095
34	0xbe96d530	-0.29459524
35	0xbe6beb11	-0.2303889
36	0xbe647f0e	-0.22314093
37	0x3d909746	0.07060103
38	0xbdfdbad1	-0.12389148
39	0xbe54b140	-0.2077074
40	0xbe927f59	-0.28612784
41	0xbe86c0a8	-0.2631886
42	0xbc7509b4	-0.014955927
43	0x3cf79832	0.03022394
44	0xbee10f96	-0.43957204
45	0x3d8fef86	0.07028107
46	0xbea3234d	-0.3186287
47	0xbdb2ce47	-0.087307505
48	0xbd552aed	-0.05204289
49	0x3e158a32	0.14603499
50	0xbc63d2e3	-0.01390526
51	0xbea7747b	-0.32706055
52	0xbd2ec96f	-0.04267257
53	0x3e5fde3f	0.21862124
54	0x3c1fdaf6	0.009756794
55	0xbd6d4b3a	-0.05793307
56	0xbce4b37c	-0.027917616
57	0xbe8c5014	-0.27404845
58	0xbcb08e4a	-0.021552224
59	0xbe702964	-0.2345329
60	0xbdf3fb21	-0.119131334
61	0xbe4cd160	-0.20001745
62	0x3e121fa3	0.14269881
63	0xbdd9c51a	-0.10633297

fc2.weight f4 [64, 64]
0	0x3d60c363	0.054873835
1	0xbd832a2c	-0.06404528
2	0xbe379e6e	-0.1793153
3	0xbe3953a4	-0.18098313
4	0x3e45a41b	0.19300883
5	0xbe34e55a	-0.17665616
6	0xbb9d3a47	-0.004798207
7	0x3d0bf3a8	0.034167916
8	0xbde2c2b3	-0.11072292
9	0xbd2b7e35	-0.041868407
10	0x3cac5d0f	0.021040468
11	0x3d91eaef	0.07124888
12	0xbd9879dc	-0.07445118
13	0x3b2216b4	0.002473277
14	0x3de7516f	0.11294829
15	0xbe1beebc	-0.15227789
16	0xbd8ce5f2	-0.06879796
17	0x3e41a5d8	0.1891092
18	0xbe1234fe	-0.14278027
19	0xbde2a160	-0.11065936
20	0x3deb1f95	0.11480633
21	0xbe12e919	-0.14346732
22	0x3e1e7848	0.15475571
23	0xbbb35a81	-0.0054734354
24	0x3d0c9e03	0.03433038
25	0x3d56e2d1	0.052462403
26	0xbe04e428	-0.1297766
27	0xbd9bb429	-0.07602722
28	0xbd23b3da	-0.03996644
29	0xbdbbfcc6	-0.09179072
30	0xbdc81a10	-0.09770596
31	0xbccda87f	-0.02510476
32	0x3e3f75b2	0.18697241
33	0xbc420bbe	-0.01184362
34	0xbe01a254	-0.1265958
35	0x3d12aa89	0.035807166
36	0xbe1a4566	-0.15065536
37	0x3ca34256	0.019929092
38	0xbd87074f	-0.06593191
39	0xbdc4fc24	-0.096184045
40	0x3e003bf3	0.12522869
41	0xbd63fb38	-0.055659503
42	0xbe250877	-0.1611651
43	0xbd5537c1	-0.052055124
44	0x3d87f7a8	0.066390336
45	0x3e12df21	0.1434293
46	0xbc2b5232	-0.010456609
47	0xbd78e5a2	-0.06076587
48	0xbd0f9c8b	-0.0350614
49	0x3c310e0f	0.0108065745
50	0x3cab6207	0.020920767
51	0xbd89d080	-0.06729221
52	0x3deff376	0.11716358
53	0x3dcb1d31	0.09917677
54	0xbe2e3c45	-0.17015179
55	0xbdf6cf3d	-0.12051246
56	0x3bf99ed6	0.0076178117
57	0x3dc59d98	0.09649199
58	0xbcd79c06	-0.026319515
59	0xbe0fdc5f	-0.14048909
60	0x3ccb3cca	0.02480926
61	0xbda8f86d	-0.082505085
62	0xbda5c94f	-0.08095037
63	0x3dd93264	0.106053144
64	0xbe44f162	-0.19232705
65	0xbd8f187a	-0.069870904
66	0xbdd8ed45	-0.105921306
67	0xbd3387e7	-0.04383078
68	0xbdb92037	-0.090393476
69	0xbd710446	-0.058841966
70	0xbe1955b2	-0.14974096
71	0xbdd16bea	-0.10225661
72	0xbd83e49e	-0.0644009
73	0x3d9cd70c	0.076582044
74	0xbd58d591	-0.052938048
75	0xbd501ab0	-0.0508067
76	0xbc85053b	-0.016237846
77	0xbd644b75	-0.055736024
78	0xbdfacbcc	-0.122459024
79	0xbda4baf6	-0.080434725
80	0xbe1d142b	-0.15339725
81	0xbd68415a	-0.05670295
82	0x3c420b1d	0.01184347
83	0xbe2d75ad	-0.16939421
84	0x3d4dd560	0.05025232
85	0xbe0a8d93	-0.13530569
86	0xbceb33e6	-0.02871127
87	0xbddd468b	-0.10804471
88	0x3da49b71	0.080374606
89	0xbddf04db	-0.10889598
90	0xbd0ae24b	-0.033907216
91	0xbcba4ca6	-0.022741627
92	0xbe5ef8d9	-0.21774615
93	0xbd5973c6	-0.053088926
94	0xbe05af77	-0.13055216
95	0xbdb5e29d	-0.08881114
96	0xbd977d10	-0.07396901
97	0x3d2acaf7	0.04169747
98	0xbdde5cfc	-0.10857579
99	0x3a5e0dbd	0.0008470675
100	0xbd7a507e	-0.06111192
101	0x3e385ec3	0.18004899
102	0x3d260711	0.040534083
103	0xbdb30860	-0.08741832
104	0xbe1b1c5a	-0.15147534
105	0xbe452425	-0.1925207
106	0xbe80bf59	-0.25145987
107	0x3c90a85e	0.017658409
108	0x3d0b2137	0.033967223
109	0x3df1b0f1	0.11801327
110	0x3d2212a0	0.039568543
111	0x3ca5525a	0.02018087
112	0xbe7280d0	-0.2368195
113	0xbdffb015	-0.12484757
114	0xbe1b06d2	-0.1513932
115	0xbe8008bb	-0.2500666
116	0xbbe83c5c	-0.0070872735
117	0xbd52ce37	-0.051466193
118	0xbd829ea7	-0.06377917
119	0x3b67db82	0.003537864
120	0xbbe63ff8	-0.0070266686
121	0xbe14cf8a	-0.14532295
122	0x3da3e026	0.08001737
123	0xbd186963	-0.03720988
124	0xbdff6d51	-0.12472022
125	0xbda3a3a3	-0.079901956
126	0xbbd7f383	-0.006590308
127	0xbd75e2a1	-0.060030583
128	0xbe36bec0	-0.17846203
129	0xbe000ba1	-0.12504436
130	0x3d08c9ba	0.033395506
131	0xbd9504f1	-0.07276333
132	0x3e49fa5d	0.19724412
133	0xbe80962e	-0.25114578
134	0x3e4e3e62	0.20140985
135	0x3e1873d3	0.14887933
136	0x3d9984b3	0.074960135
137	0x3dc264c3	0.09491875
138	0xbe84a5c1	-0.2590771
139	0x3dfd1c70	0.1235894
140	0xbd23cd38	-0.039990634
141	0xbe6c46f6	-0.23073944
142	0xbda0a47d	-0.07843874
143	0xbdafc923	-0.08583286
144	0xbc6fa72f	-0.014627262
145	0xbf0a5356	-0.5403341
146	0xbe74f019	-0.23919715
147	0xbdf9a700	-0.12190056
148	0xbc8c41f3	-0.01712129
149	0xbb9d0588	-0.004791919
150	0xbe03de1a	-0.12877694
151	0xbee00c87	-0.43759558
152	0x3e4a48f1	0.19754387
153	0x3e061250	0.13092923
154	0xbc75d7cc	-0.015005063
155	0xbe4b3c2e	-0.19847175
156	0xbf9e1643	-1.2350544
157	0xbe5d9b92	-0.21641377
158	0xbe2a9e5f	-0.16661976
159	0x3d745d03	0.059659015
160	0xbd1e22c2	-0.038607366
161	0x3d196c27	0.037456658
162	0x3dd24376	0.102667734
163	0xbc66280f	-0.014047637
164	0x3e709374	0.23493749
165	0xbe31c3b4	-0.17359811
166	0xbe724225	-0.23658045
167	0x3d999153	0.074984215
168	0xbe66a255	-0.22522862
169	0xbe41a88a	-0.18911949
170	0x3e3466c0	0.17617321
171	0x3d3491a8	0.04408422
172	0x3e09ff20	0.13476229
173	0x3ce7c5a4	0.028292485
174	0x3e007fa1	0.12548687
175	0xbd456e62	-0.048200972
176	0xbe9033c3	-0.2816449
177	0xbe174646	-0.14772901
178	0xbe89bb7e	-0.26900858
179	0xbc3b8830	-0.011446044
180	0xbe819758	-0.2531078
181	0x3d6ee932	0.05832786
182	0xbe2fe61b	-0.17177622
183	0xbcbf0b37	-0.023320777
184	0xbd0481e5	-0.03235044
185	0x3d36003f	0.04443383
186	0xbcbd88be	-0.023136493
187	0xbc7ae034	-0.015312243
188	0x3d90f415	0.07077805
189	0xbd6f748d	-0.05846076
190	0xbe69c3d2	-0.22828606
191	0xbe74c4bd	-0.23903175
192	0xbbb4fe31	-0.005523466
193	0xbe81e06d	-0.25366536
194	0xbd509c4c	-0.050930306
195	0xbe29ba45	-0.16574962
196	0x3e169db1	0.14708592
197	0xbd6058b7	-0.054772105
198	0x3d170726	0.03687205
199	0x3d3ac5af	0.045598682
200	0xbe9baee7	-0.30406877
201	0x3d93abc8	0.07210499
202	0xbe9e663f	-0.30937383
203	0xbceef264	-0.029168315
204	0xbd99f3b1	-0.075171836
205	0xbd6b33f6	-0.0574226
206	0x3de9831b	0.114019595
207	0xbd61cea6	-0.055128716
208	0xbdf4932c	-0.11942133
209	0xbe45ff4f	-0.19335674
210	0x3db00603	0.08594897
211	0xbd8f09c6	-0.06984286
212	0xbdb18a8a	-0.08669002
213	0xbe600f6b	-0.21880881
214	0xbedb60aa	-0.42847186
215	0xbe12e91c	-0.14346737
216	0xbc8753bb	-0.016519418
217	0xbd69548d	-0.0569654
218	0xbcea6d86	-0.028616678
219	0xbbb3b67d	-0.005484401
220	0xbf2c7e5b	-0.67380303
221	0xbe0f61fe	-0.14002225
222	0xbe0fb388	-0.1403333
223	0xbd927158	-0.07150525
224	0x3c4b60c6	0.012413209
225	0x3dac43a1	0.08411337
226	0x3d091743	0.03346945
227	0xbe169e82	-0.14708903
228	0x3e2d9913	0.16952924
229	0xbe99848b	-0.29983935
230	0xbd1b823b	-0.037965994
231	0x3c2b3501	0.010449649
232	0xbdf7b973	-0.120959185
233	0xbe379605	-0.17928322
234	0xbc3e81a1	-0.011627586
235	0x3b3a2b66	0.0028407215
236	0x3ddffb32	0.109365836
237	0xbb2cda74	-0.0026375325
238	0xbc9ed032	-0.019386385
239	0xbdbda9e1	-0.092609175
240	0xbe5a751b	-0.21333735
241	0xbee238e2	-0.44184023
242	0xbe4a3d53	-0.19749956
243	0xbc0ce7b3	-0.008600163
244	0xbdc45ff2	-0.095886126
245	0xbc805547	-0.015665663
246	0xbe7d2c86	-0.24724016
247	0xbda321a2	-0.07965399
248	0xbde0472a	-0.109510735
249	0xbc8281e3	-0.015931075
250	0xbe998b04	-0.29988873
251	0x3c935b4b	0.017987868
252	0xbcbe669f	-0.023242293
253	0xbca309bc	-0.019902103
254	0xbd846f61	-0.06466556
255	0xbdc3805e	-0.095459685

fc2.bias f4 [64]
0	0x3b954677	0.004555519
1	0xbdcff771	-0.101546176
2	0x3d801aff	0.06255149
3	0x3d32dd6f	0.043668207
4	0x3e959b6e	0.29220146
5	0xbcd1cdb0	-0.025610775
6	0x3d5fc01f	0.05462658
7	0xbcb1a260	-0.021683872
8	0xbbb9da2c	-0.00567176
9	0xbe3658c0	-0.17807293
10	0xbd6acdf7	-0.05732533
11	0x3cfb4695	0.030673305
12	0xbda32741	-0.079664715
13	0xbe29327b	-0.16523163
14	0x3e8e2116	0.27759618
15	0x3ea4f4aa	0.32217914
16	0xbd1bd1b4	-0.038041785
17	0xbdd716c7	-0.10502391
18	0x3c8d4a20	0.01724726
19	0xbdc9c971	-0.09852875
20	0xbc79470f	-0.015214696
21	0xbcd98ea3	-0.026557272
22	0xbd7eeb58	-0.06223616
23	0xbcc89154	-0.02448336
24	0xbe84135c	-0.2579602
25	0xbe130e96	-0.14361033
26	0xbcad2bb9	-0.021139013
27	0xbe5a259b	-0.21303408
28	0xbda4e5a2	-0.080516115
29	0x3de7d0ce	0.11319123
30	0xbd311006	-0.04322817
31	0x3d9898d7	0.07451027
32	0x3d8bff8e	0.068358526
33	0xbd80d337	-0.06290286
34	0xbe39ae18	-0.18132818
35	0x3e088f51	0.13335921
36	0xbe716294	-0.23572761
37	0x3e1d6ef4	0.15374357
38	0xbe10ec54	-0.14152652
39	0xbd2b1c39	-0.041774962
40	0xbdb96b91	-0.0905372
41	0xbe3965cb	-0.18105237
42	0x3c9c3f5d	0.019073183
43	0xbe2642eb	-0.16236465
44	0xbde20537	-0.11036151
45	0xbd9cfa01	-0.07664872
46	0x3e17d7a8	0.1482836
47	0xbd172eb7	-0.036909785
48	0x3dee9cdc	0.11651012
49	0xbd915a23	-0.0709727
50	0xbd524e9c	-0.0513445
51	0xbe4024e1	-0.18764068
52	0x3e111904	0.14169699
53	0xbd64ad95	-0.055829603
54	0xbd7edff6	-0.062225305
55	0x3d8c22c2	0.06842567
56	0x3c8c81c6	0.017151725
57	0x3de060fb	0.109559976
58	0xbdddce52	-0.10830368
59	0xbdda1fca	-0.106505945
60	0xbc3bd9c7	-0.011465496
61	0xbba57646	-0.0050494997
62	0xbe1ad38d	-0.15119763
63	0x3e504b7a	0.20341292

fc3.weight f4 [1, 64]
0	0x3b01eaac	0.0019823713
1	0xbd762887	-0.060097244
2	0x3db1fcef	0.086908214
3	0xbc4d8522	-0.012543948
4	0xbe1cec93	-0.15324621
5	0xbc3ee8bc	-0.011652168
6	0xbd2650fb	-0.040604573
7	0xbbf60b24	-0.0075086523
8	0x3c94a3f9	0.018144595
9	0x3c686c83	0.014186027
10	0x3c2725ca	0.010201881
11	0xbcb0c0a1	-0.021576228
12	0xbcafbfa4	-0.021453686
13	0x3d070aae	0.03296917
14	0x3ee9d91a	0.45673448
15	0xbe8c1781	-0.27361682
16	0xba2dd503	-0.00066311675
17	0x3d1e0caf	0.038586315
18	0xba338676	-0.00068483443
19	0xbc5b0788	-0.013368495
20	0xbcc4733d	-0.023980731
21	0x3cc35382	0.02384353
22	0xbc9d7072	-0.019218657
23	0x3dfab8ec	0.12242302
24	0x3b8c8906	0.0042887954
25	0xbb423720	-0.0029634908
26	0x3d2ea377	0.04263636
27	0xbb8c4f94	-0.0042819474
28	0x3c788b5d	0.015169946
29	0xba4e397d	-0.0007866843
30	0xbc2c33e6	-0.01051042
31	0x3c7e0cd9	0.015505993
32	0xbb84138d	-0.004030651
33	0xbb72c96e	-0.003704633
34	0x3dafb5cb	0.08579596
35	0xbda70b2c	-0.08156428
36	0x3d2c3b8e	0.042048983
37	0xbc422dba	-0.011851722
38	0x3c0eaf04	0.008708719
39	0xbc051119	-0.008121752
40	0x3c39dfce	0.011344863
41	0x3bf7d2cf	0.007562972
42	0xbba561dd	-0.0050470666
43	0x3cbc1050	0.022956997
44	0x3c81c1ec	0.01583954
45	0x3d796e7e	0.06089639
46	0x3d8d95a7	0.069133095
47	0xbc8afb0c	-0.016965412
48	0xbdd4849d	-0.103768565
49	0xbd7c823c	-0.06164764
50	0xbc36ce42	-0.011157574
51	0x3c22af20	0.009929448
52	0x3d37da6e	0.044886045
53	0xbd1046a0	-0.035223603
54	0x3ab256d2	0.0013606197
55	0xbb3ba16f	-0.0028630157
56	0xbb4e412e	-0.0031471956
57	0xbdecc497	-0.11560934
58	0xb78ff3b6	-1.7160415e-05
59	0x3cf90a32	0.03040037
60	0xbd36f80d	-0.044670153
61	0xba9ba80b	-0.0011875642
62	0xbd02fc83	-0.031979095
63	0xbded8abf	-0.11598729

in_fn.weight f4 [4]
0	0x3eec43d8	0.4614551
1	0x3f508c23	0.8146383
2	0x3f4a564a	0.79037917
3	0x3dd9f19b	0.10641786

in_fn.bias f4 [4]
0	0x3e03ee0f	0.12883781
1	0xbdf59052	-0.119904175
2	0x3e503314	0.20331985
3	0x3e4e3cbb	0.20140354

in_fn.running_mean f4 [4]
0	0x3e928db5	0.2862374
1	0x3e5feb42	0.21867087
2	0x3e8cd328	0.2750485
3	0x3e6152f5	0.22004302

in_fn.running_var f4 [4]
0	0x3e5140a2	0.20434812
1	0x3e2f06d3	0.17092447
2	0x3e4c2da6	0.19939288
3	0x3e2fd708	0.17171872
